node {
  name: "INPUT/emb_placeholder"
  op: "Placeholder"
  device: "/device:CPU:0"
  attr {
    key: "dtype"
    value {
      type: DT_STRING
    }
  }
  attr {
    key: "shape"
    value {
      shape {
        dim {
          size: -1
        }
        dim {
          size: 3
        }
      }
    }
  }
}
node {
  name: "INPUT/onehot_placeholder"
  op: "Placeholder"
  device: "/device:CPU:0"
  attr {
    key: "dtype"
    value {
      type: DT_STRING
    }
  }
  attr {
    key: "shape"
    value {
      shape {
        dim {
          size: -1
        }
        dim {
          size: 11
        }
      }
    }
  }
}
node {
  name: "INPUT/wide_placeholder"
  op: "Placeholder"
  device: "/device:CPU:0"
  attr {
    key: "dtype"
    value {
      type: DT_STRING
    }
  }
  attr {
    key: "shape"
    value {
      shape {
        dim {
          size: -1
        }
        dim {
          size: 2
        }
      }
    }
  }
}
node {
  name: "INPUT/label"
  op: "Placeholder"
  device: "/device:CPU:0"
  attr {
    key: "dtype"
    value {
      type: DT_STRING
    }
  }
  attr {
    key: "shape"
    value {
      shape {
        dim {
          size: -1
        }
        dim {
          size: 1
        }
      }
    }
  }
}
node {
  name: "deep_logits/multiEmbedding/embedding/random_uniform/shape"
  op: "Const"
  device: "/device:GPU:0"
  attr {
    key: "dtype"
    value {
      type: DT_INT32
    }
  }
  attr {
    key: "value"
    value {
      tensor {
        dtype: DT_INT32
        tensor_shape {
          dim {
            size: 2
          }
        }
        tensor_content: "d\000\000\000 \000\000\000"
      }
    }
  }
}
node {
  name: "deep_logits/multiEmbedding/embedding/random_uniform/min"
  op: "Const"
  device: "/device:GPU:0"
  attr {
    key: "dtype"
    value {
      type: DT_FLOAT
    }
  }
  attr {
    key: "value"
    value {
      tensor {
        dtype: DT_FLOAT
        tensor_shape {
        }
        float_val: -0.015625
      }
    }
  }
}
node {
  name: "deep_logits/multiEmbedding/embedding/random_uniform/max"
  op: "Const"
  device: "/device:GPU:0"
  attr {
    key: "dtype"
    value {
      type: DT_FLOAT
    }
  }
  attr {
    key: "value"
    value {
      tensor {
        dtype: DT_FLOAT
        tensor_shape {
        }
        float_val: 0.015625
      }
    }
  }
}
node {
  name: "deep_logits/multiEmbedding/embedding/random_uniform/RandomUniform"
  op: "RandomUniform"
  input: "deep_logits/multiEmbedding/embedding/random_uniform/shape"
  device: "/device:GPU:0"
  attr {
    key: "T"
    value {
      type: DT_INT32
    }
  }
  attr {
    key: "dtype"
    value {
      type: DT_FLOAT
    }
  }
  attr {
    key: "seed"
    value {
      i: 0
    }
  }
  attr {
    key: "seed2"
    value {
      i: 0
    }
  }
}
node {
  name: "deep_logits/multiEmbedding/embedding/random_uniform/sub"
  op: "Sub"
  input: "deep_logits/multiEmbedding/embedding/random_uniform/max"
  input: "deep_logits/multiEmbedding/embedding/random_uniform/min"
  device: "/device:GPU:0"
  attr {
    key: "T"
    value {
      type: DT_FLOAT
    }
  }
}
node {
  name: "deep_logits/multiEmbedding/embedding/random_uniform/mul"
  op: "Mul"
  input: "deep_logits/multiEmbedding/embedding/random_uniform/RandomUniform"
  input: "deep_logits/multiEmbedding/embedding/random_uniform/sub"
  device: "/device:GPU:0"
  attr {
    key: "T"
    value {
      type: DT_FLOAT
    }
  }
}
node {
  name: "deep_logits/multiEmbedding/embedding/random_uniform"
  op: "Add"
  input: "deep_logits/multiEmbedding/embedding/random_uniform/mul"
  input: "deep_logits/multiEmbedding/embedding/random_uniform/min"
  device: "/device:GPU:0"
  attr {
    key: "T"
    value {
      type: DT_FLOAT
    }
  }
}
node {
  name: "deep_logits/multiEmbedding/embedding/embeddingemb"
  op: "VariableV2"
  device: "/device:GPU:0"
  attr {
    key: "container"
    value {
      s: ""
    }
  }
  attr {
    key: "dtype"
    value {
      type: DT_FLOAT
    }
  }
  attr {
    key: "shape"
    value {
      shape {
        dim {
          size: 100
        }
        dim {
          size: 32
        }
      }
    }
  }
  attr {
    key: "shared_name"
    value {
      s: ""
    }
  }
}
node {
  name: "deep_logits/multiEmbedding/embedding/embeddingemb/Assign"
  op: "Assign"
  input: "deep_logits/multiEmbedding/embedding/embeddingemb"
  input: "deep_logits/multiEmbedding/embedding/random_uniform"
  device: "/device:GPU:0"
  attr {
    key: "T"
    value {
      type: DT_FLOAT
    }
  }
  attr {
    key: "_class"
    value {
      list {
        s: "loc:@deep_logits/multiEmbedding/embedding/embeddingemb"
      }
    }
  }
  attr {
    key: "use_locking"
    value {
      b: true
    }
  }
  attr {
    key: "validate_shape"
    value {
      b: true
    }
  }
}
node {
  name: "deep_logits/multiEmbedding/embedding/embeddingemb/read"
  op: "Identity"
  input: "deep_logits/multiEmbedding/embedding/embeddingemb"
  device: "/device:GPU:0"
  attr {
    key: "T"
    value {
      type: DT_FLOAT
    }
  }
  attr {
    key: "_class"
    value {
      list {
        s: "loc:@deep_logits/multiEmbedding/embedding/embeddingemb"
      }
    }
  }
}
node {
  name: "deep_logits/multiEmbedding/embedding_1/random_uniform/shape"
  op: "Const"
  device: "/device:GPU:0"
  attr {
    key: "dtype"
    value {
      type: DT_INT32
    }
  }
  attr {
    key: "value"
    value {
      tensor {
        dtype: DT_INT32
        tensor_shape {
          dim {
            size: 2
          }
        }
        tensor_content: "d\000\000\000 \000\000\000"
      }
    }
  }
}
node {
  name: "deep_logits/multiEmbedding/embedding_1/random_uniform/min"
  op: "Const"
  device: "/device:GPU:0"
  attr {
    key: "dtype"
    value {
      type: DT_FLOAT
    }
  }
  attr {
    key: "value"
    value {
      tensor {
        dtype: DT_FLOAT
        tensor_shape {
        }
        float_val: -0.015625
      }
    }
  }
}
node {
  name: "deep_logits/multiEmbedding/embedding_1/random_uniform/max"
  op: "Const"
  device: "/device:GPU:0"
  attr {
    key: "dtype"
    value {
      type: DT_FLOAT
    }
  }
  attr {
    key: "value"
    value {
      tensor {
        dtype: DT_FLOAT
        tensor_shape {
        }
        float_val: 0.015625
      }
    }
  }
}
node {
  name: "deep_logits/multiEmbedding/embedding_1/random_uniform/RandomUniform"
  op: "RandomUniform"
  input: "deep_logits/multiEmbedding/embedding_1/random_uniform/shape"
  device: "/device:GPU:0"
  attr {
    key: "T"
    value {
      type: DT_INT32
    }
  }
  attr {
    key: "dtype"
    value {
      type: DT_FLOAT
    }
  }
  attr {
    key: "seed"
    value {
      i: 0
    }
  }
  attr {
    key: "seed2"
    value {
      i: 0
    }
  }
}
node {
  name: "deep_logits/multiEmbedding/embedding_1/random_uniform/sub"
  op: "Sub"
  input: "deep_logits/multiEmbedding/embedding_1/random_uniform/max"
  input: "deep_logits/multiEmbedding/embedding_1/random_uniform/min"
  device: "/device:GPU:0"
  attr {
    key: "T"
    value {
      type: DT_FLOAT
    }
  }
}
node {
  name: "deep_logits/multiEmbedding/embedding_1/random_uniform/mul"
  op: "Mul"
  input: "deep_logits/multiEmbedding/embedding_1/random_uniform/RandomUniform"
  input: "deep_logits/multiEmbedding/embedding_1/random_uniform/sub"
  device: "/device:GPU:0"
  attr {
    key: "T"
    value {
      type: DT_FLOAT
    }
  }
}
node {
  name: "deep_logits/multiEmbedding/embedding_1/random_uniform"
  op: "Add"
  input: "deep_logits/multiEmbedding/embedding_1/random_uniform/mul"
  input: "deep_logits/multiEmbedding/embedding_1/random_uniform/min"
  device: "/device:GPU:0"
  attr {
    key: "T"
    value {
      type: DT_FLOAT
    }
  }
}
node {
  name: "deep_logits/multiEmbedding/embedding_1/embeddingemb"
  op: "VariableV2"
  device: "/device:GPU:0"
  attr {
    key: "container"
    value {
      s: ""
    }
  }
  attr {
    key: "dtype"
    value {
      type: DT_FLOAT
    }
  }
  attr {
    key: "shape"
    value {
      shape {
        dim {
          size: 100
        }
        dim {
          size: 32
        }
      }
    }
  }
  attr {
    key: "shared_name"
    value {
      s: ""
    }
  }
}
node {
  name: "deep_logits/multiEmbedding/embedding_1/embeddingemb/Assign"
  op: "Assign"
  input: "deep_logits/multiEmbedding/embedding_1/embeddingemb"
  input: "deep_logits/multiEmbedding/embedding_1/random_uniform"
  device: "/device:GPU:0"
  attr {
    key: "T"
    value {
      type: DT_FLOAT
    }
  }
  attr {
    key: "_class"
    value {
      list {
        s: "loc:@deep_logits/multiEmbedding/embedding_1/embeddingemb"
      }
    }
  }
  attr {
    key: "use_locking"
    value {
      b: true
    }
  }
  attr {
    key: "validate_shape"
    value {
      b: true
    }
  }
}
node {
  name: "deep_logits/multiEmbedding/embedding_1/embeddingemb/read"
  op: "Identity"
  input: "deep_logits/multiEmbedding/embedding_1/embeddingemb"
  device: "/device:GPU:0"
  attr {
    key: "T"
    value {
      type: DT_FLOAT
    }
  }
  attr {
    key: "_class"
    value {
      list {
        s: "loc:@deep_logits/multiEmbedding/embedding_1/embeddingemb"
      }
    }
  }
}
node {
  name: "deep_logits/multiEmbedding/embedding_2/random_uniform/shape"
  op: "Const"
  device: "/device:GPU:0"
  attr {
    key: "dtype"
    value {
      type: DT_INT32
    }
  }
  attr {
    key: "value"
    value {
      tensor {
        dtype: DT_INT32
        tensor_shape {
          dim {
            size: 2
          }
        }
        tensor_content: "d\000\000\000 \000\000\000"
      }
    }
  }
}
node {
  name: "deep_logits/multiEmbedding/embedding_2/random_uniform/min"
  op: "Const"
  device: "/device:GPU:0"
  attr {
    key: "dtype"
    value {
      type: DT_FLOAT
    }
  }
  attr {
    key: "value"
    value {
      tensor {
        dtype: DT_FLOAT
        tensor_shape {
        }
        float_val: -0.015625
      }
    }
  }
}
node {
  name: "deep_logits/multiEmbedding/embedding_2/random_uniform/max"
  op: "Const"
  device: "/device:GPU:0"
  attr {
    key: "dtype"
    value {
      type: DT_FLOAT
    }
  }
  attr {
    key: "value"
    value {
      tensor {
        dtype: DT_FLOAT
        tensor_shape {
        }
        float_val: 0.015625
      }
    }
  }
}
node {
  name: "deep_logits/multiEmbedding/embedding_2/random_uniform/RandomUniform"
  op: "RandomUniform"
  input: "deep_logits/multiEmbedding/embedding_2/random_uniform/shape"
  device: "/device:GPU:0"
  attr {
    key: "T"
    value {
      type: DT_INT32
    }
  }
  attr {
    key: "dtype"
    value {
      type: DT_FLOAT
    }
  }
  attr {
    key: "seed"
    value {
      i: 0
    }
  }
  attr {
    key: "seed2"
    value {
      i: 0
    }
  }
}
node {
  name: "deep_logits/multiEmbedding/embedding_2/random_uniform/sub"
  op: "Sub"
  input: "deep_logits/multiEmbedding/embedding_2/random_uniform/max"
  input: "deep_logits/multiEmbedding/embedding_2/random_uniform/min"
  device: "/device:GPU:0"
  attr {
    key: "T"
    value {
      type: DT_FLOAT
    }
  }
}
node {
  name: "deep_logits/multiEmbedding/embedding_2/random_uniform/mul"
  op: "Mul"
  input: "deep_logits/multiEmbedding/embedding_2/random_uniform/RandomUniform"
  input: "deep_logits/multiEmbedding/embedding_2/random_uniform/sub"
  device: "/device:GPU:0"
  attr {
    key: "T"
    value {
      type: DT_FLOAT
    }
  }
}
node {
  name: "deep_logits/multiEmbedding/embedding_2/random_uniform"
  op: "Add"
  input: "deep_logits/multiEmbedding/embedding_2/random_uniform/mul"
  input: "deep_logits/multiEmbedding/embedding_2/random_uniform/min"
  device: "/device:GPU:0"
  attr {
    key: "T"
    value {
      type: DT_FLOAT
    }
  }
}
node {
  name: "deep_logits/multiEmbedding/embedding_2/embeddingemb"
  op: "VariableV2"
  device: "/device:GPU:0"
  attr {
    key: "container"
    value {
      s: ""
    }
  }
  attr {
    key: "dtype"
    value {
      type: DT_FLOAT
    }
  }
  attr {
    key: "shape"
    value {
      shape {
        dim {
          size: 100
        }
        dim {
          size: 32
        }
      }
    }
  }
  attr {
    key: "shared_name"
    value {
      s: ""
    }
  }
}
node {
  name: "deep_logits/multiEmbedding/embedding_2/embeddingemb/Assign"
  op: "Assign"
  input: "deep_logits/multiEmbedding/embedding_2/embeddingemb"
  input: "deep_logits/multiEmbedding/embedding_2/random_uniform"
  device: "/device:GPU:0"
  attr {
    key: "T"
    value {
      type: DT_FLOAT
    }
  }
  attr {
    key: "_class"
    value {
      list {
        s: "loc:@deep_logits/multiEmbedding/embedding_2/embeddingemb"
      }
    }
  }
  attr {
    key: "use_locking"
    value {
      b: true
    }
  }
  attr {
    key: "validate_shape"
    value {
      b: true
    }
  }
}
node {
  name: "deep_logits/multiEmbedding/embedding_2/embeddingemb/read"
  op: "Identity"
  input: "deep_logits/multiEmbedding/embedding_2/embeddingemb"
  device: "/device:GPU:0"
  attr {
    key: "T"
    value {
      type: DT_FLOAT
    }
  }
  attr {
    key: "_class"
    value {
      list {
        s: "loc:@deep_logits/multiEmbedding/embedding_2/embeddingemb"
      }
    }
  }
}
node {
  name: "deep_logits/look_up_embedding/strided_slice/stack"
  op: "Const"
  device: "/device:GPU:0"
  attr {
    key: "dtype"
    value {
      type: DT_INT32
    }
  }
  attr {
    key: "value"
    value {
      tensor {
        dtype: DT_INT32
        tensor_shape {
          dim {
            size: 2
          }
        }
        tensor_content: "\000\000\000\000\000\000\000\000"
      }
    }
  }
}
node {
  name: "deep_logits/look_up_embedding/strided_slice/stack_1"
  op: "Const"
  device: "/device:GPU:0"
  attr {
    key: "dtype"
    value {
      type: DT_INT32
    }
  }
  attr {
    key: "value"
    value {
      tensor {
        dtype: DT_INT32
        tensor_shape {
          dim {
            size: 2
          }
        }
        tensor_content: "\000\000\000\000\001\000\000\000"
      }
    }
  }
}
node {
  name: "deep_logits/look_up_embedding/strided_slice/stack_2"
  op: "Const"
  device: "/device:GPU:0"
  attr {
    key: "dtype"
    value {
      type: DT_INT32
    }
  }
  attr {
    key: "value"
    value {
      tensor {
        dtype: DT_INT32
        tensor_shape {
          dim {
            size: 2
          }
        }
        tensor_content: "\001\000\000\000\001\000\000\000"
      }
    }
  }
}
node {
  name: "deep_logits/look_up_embedding/strided_slice"
  op: "StridedSlice"
  input: "INPUT/emb_placeholder"
  input: "deep_logits/look_up_embedding/strided_slice/stack"
  input: "deep_logits/look_up_embedding/strided_slice/stack_1"
  input: "deep_logits/look_up_embedding/strided_slice/stack_2"
  device: "/device:GPU:0"
  attr {
    key: "Index"
    value {
      type: DT_INT32
    }
  }
  attr {
    key: "T"
    value {
      type: DT_STRING
    }
  }
  attr {
    key: "begin_mask"
    value {
      i: 1
    }
  }
  attr {
    key: "ellipsis_mask"
    value {
      i: 0
    }
  }
  attr {
    key: "end_mask"
    value {
      i: 1
    }
  }
  attr {
    key: "new_axis_mask"
    value {
      i: 0
    }
  }
  attr {
    key: "shrink_axis_mask"
    value {
      i: 2
    }
  }
}
node {
  name: "deep_logits/look_up_embedding/StringToHashBucketFast"
  op: "StringToHashBucketFast"
  input: "deep_logits/look_up_embedding/strided_slice"
  device: "/device:GPU:0"
  attr {
    key: "num_buckets"
    value {
      i: 100
    }
  }
}
node {
  name: "deep_logits/look_up_embedding/embedding_lookup"
  op: "Gather"
  input: "deep_logits/multiEmbedding/embedding/embeddingemb/read"
  input: "deep_logits/look_up_embedding/StringToHashBucketFast"
  device: "/device:GPU:0"
  attr {
    key: "Tindices"
    value {
      type: DT_INT64
    }
  }
  attr {
    key: "Tparams"
    value {
      type: DT_FLOAT
    }
  }
  attr {
    key: "_class"
    value {
      list {
        s: "loc:@deep_logits/multiEmbedding/embedding/embeddingemb"
      }
    }
  }
  attr {
    key: "validate_indices"
    value {
      b: true
    }
  }
}
node {
  name: "deep_logits/look_up_embedding/strided_slice_1/stack"
  op: "Const"
  device: "/device:GPU:0"
  attr {
    key: "dtype"
    value {
      type: DT_INT32
    }
  }
  attr {
    key: "value"
    value {
      tensor {
        dtype: DT_INT32
        tensor_shape {
          dim {
            size: 2
          }
        }
        tensor_content: "\000\000\000\000\001\000\000\000"
      }
    }
  }
}
node {
  name: "deep_logits/look_up_embedding/strided_slice_1/stack_1"
  op: "Const"
  device: "/device:GPU:0"
  attr {
    key: "dtype"
    value {
      type: DT_INT32
    }
  }
  attr {
    key: "value"
    value {
      tensor {
        dtype: DT_INT32
        tensor_shape {
          dim {
            size: 2
          }
        }
        tensor_content: "\000\000\000\000\002\000\000\000"
      }
    }
  }
}
node {
  name: "deep_logits/look_up_embedding/strided_slice_1/stack_2"
  op: "Const"
  device: "/device:GPU:0"
  attr {
    key: "dtype"
    value {
      type: DT_INT32
    }
  }
  attr {
    key: "value"
    value {
      tensor {
        dtype: DT_INT32
        tensor_shape {
          dim {
            size: 2
          }
        }
        tensor_content: "\001\000\000\000\001\000\000\000"
      }
    }
  }
}
node {
  name: "deep_logits/look_up_embedding/strided_slice_1"
  op: "StridedSlice"
  input: "INPUT/emb_placeholder"
  input: "deep_logits/look_up_embedding/strided_slice_1/stack"
  input: "deep_logits/look_up_embedding/strided_slice_1/stack_1"
  input: "deep_logits/look_up_embedding/strided_slice_1/stack_2"
  device: "/device:GPU:0"
  attr {
    key: "Index"
    value {
      type: DT_INT32
    }
  }
  attr {
    key: "T"
    value {
      type: DT_STRING
    }
  }
  attr {
    key: "begin_mask"
    value {
      i: 1
    }
  }
  attr {
    key: "ellipsis_mask"
    value {
      i: 0
    }
  }
  attr {
    key: "end_mask"
    value {
      i: 1
    }
  }
  attr {
    key: "new_axis_mask"
    value {
      i: 0
    }
  }
  attr {
    key: "shrink_axis_mask"
    value {
      i: 2
    }
  }
}
node {
  name: "deep_logits/look_up_embedding/StringToHashBucketFast_1"
  op: "StringToHashBucketFast"
  input: "deep_logits/look_up_embedding/strided_slice_1"
  device: "/device:GPU:0"
  attr {
    key: "num_buckets"
    value {
      i: 100
    }
  }
}
node {
  name: "deep_logits/look_up_embedding/embedding_lookup_1"
  op: "Gather"
  input: "deep_logits/multiEmbedding/embedding_1/embeddingemb/read"
  input: "deep_logits/look_up_embedding/StringToHashBucketFast_1"
  device: "/device:GPU:0"
  attr {
    key: "Tindices"
    value {
      type: DT_INT64
    }
  }
  attr {
    key: "Tparams"
    value {
      type: DT_FLOAT
    }
  }
  attr {
    key: "_class"
    value {
      list {
        s: "loc:@deep_logits/multiEmbedding/embedding_1/embeddingemb"
      }
    }
  }
  attr {
    key: "validate_indices"
    value {
      b: true
    }
  }
}
node {
  name: "deep_logits/look_up_embedding/strided_slice_2/stack"
  op: "Const"
  device: "/device:GPU:0"
  attr {
    key: "dtype"
    value {
      type: DT_INT32
    }
  }
  attr {
    key: "value"
    value {
      tensor {
        dtype: DT_INT32
        tensor_shape {
          dim {
            size: 2
          }
        }
        tensor_content: "\000\000\000\000\002\000\000\000"
      }
    }
  }
}
node {
  name: "deep_logits/look_up_embedding/strided_slice_2/stack_1"
  op: "Const"
  device: "/device:GPU:0"
  attr {
    key: "dtype"
    value {
      type: DT_INT32
    }
  }
  attr {
    key: "value"
    value {
      tensor {
        dtype: DT_INT32
        tensor_shape {
          dim {
            size: 2
          }
        }
        tensor_content: "\000\000\000\000\003\000\000\000"
      }
    }
  }
}
node {
  name: "deep_logits/look_up_embedding/strided_slice_2/stack_2"
  op: "Const"
  device: "/device:GPU:0"
  attr {
    key: "dtype"
    value {
      type: DT_INT32
    }
  }
  attr {
    key: "value"
    value {
      tensor {
        dtype: DT_INT32
        tensor_shape {
          dim {
            size: 2
          }
        }
        tensor_content: "\001\000\000\000\001\000\000\000"
      }
    }
  }
}
node {
  name: "deep_logits/look_up_embedding/strided_slice_2"
  op: "StridedSlice"
  input: "INPUT/emb_placeholder"
  input: "deep_logits/look_up_embedding/strided_slice_2/stack"
  input: "deep_logits/look_up_embedding/strided_slice_2/stack_1"
  input: "deep_logits/look_up_embedding/strided_slice_2/stack_2"
  device: "/device:GPU:0"
  attr {
    key: "Index"
    value {
      type: DT_INT32
    }
  }
  attr {
    key: "T"
    value {
      type: DT_STRING
    }
  }
  attr {
    key: "begin_mask"
    value {
      i: 1
    }
  }
  attr {
    key: "ellipsis_mask"
    value {
      i: 0
    }
  }
  attr {
    key: "end_mask"
    value {
      i: 1
    }
  }
  attr {
    key: "new_axis_mask"
    value {
      i: 0
    }
  }
  attr {
    key: "shrink_axis_mask"
    value {
      i: 2
    }
  }
}
node {
  name: "deep_logits/look_up_embedding/StringToHashBucketFast_2"
  op: "StringToHashBucketFast"
  input: "deep_logits/look_up_embedding/strided_slice_2"
  device: "/device:GPU:0"
  attr {
    key: "num_buckets"
    value {
      i: 100
    }
  }
}
node {
  name: "deep_logits/look_up_embedding/embedding_lookup_2"
  op: "Gather"
  input: "deep_logits/multiEmbedding/embedding_2/embeddingemb/read"
  input: "deep_logits/look_up_embedding/StringToHashBucketFast_2"
  device: "/device:GPU:0"
  attr {
    key: "Tindices"
    value {
      type: DT_INT64
    }
  }
  attr {
    key: "Tparams"
    value {
      type: DT_FLOAT
    }
  }
  attr {
    key: "_class"
    value {
      list {
        s: "loc:@deep_logits/multiEmbedding/embedding_2/embeddingemb"
      }
    }
  }
  attr {
    key: "validate_indices"
    value {
      b: true
    }
  }
}
node {
  name: "deep_logits/look_up_embedding/concat/axis"
  op: "Const"
  device: "/device:GPU:0"
  attr {
    key: "dtype"
    value {
      type: DT_INT32
    }
  }
  attr {
    key: "value"
    value {
      tensor {
        dtype: DT_INT32
        tensor_shape {
        }
        int_val: 1
      }
    }
  }
}
node {
  name: "deep_logits/look_up_embedding/concat"
  op: "ConcatV2"
  input: "deep_logits/look_up_embedding/embedding_lookup"
  input: "deep_logits/look_up_embedding/embedding_lookup_1"
  input: "deep_logits/look_up_embedding/embedding_lookup_2"
  input: "deep_logits/look_up_embedding/concat/axis"
  device: "/device:GPU:0"
  attr {
    key: "N"
    value {
      i: 3
    }
  }
  attr {
    key: "T"
    value {
      type: DT_FLOAT
    }
  }
  attr {
    key: "Tidx"
    value {
      type: DT_INT32
    }
  }
}
node {
  name: "deep_logits/get_onehot/strided_slice/stack"
  op: "Const"
  device: "/device:GPU:0"
  attr {
    key: "dtype"
    value {
      type: DT_INT32
    }
  }
  attr {
    key: "value"
    value {
      tensor {
        dtype: DT_INT32
        tensor_shape {
          dim {
            size: 2
          }
        }
        tensor_content: "\000\000\000\000\000\000\000\000"
      }
    }
  }
}
node {
  name: "deep_logits/get_onehot/strided_slice/stack_1"
  op: "Const"
  device: "/device:GPU:0"
  attr {
    key: "dtype"
    value {
      type: DT_INT32
    }
  }
  attr {
    key: "value"
    value {
      tensor {
        dtype: DT_INT32
        tensor_shape {
          dim {
            size: 2
          }
        }
        tensor_content: "\000\000\000\000\001\000\000\000"
      }
    }
  }
}
node {
  name: "deep_logits/get_onehot/strided_slice/stack_2"
  op: "Const"
  device: "/device:GPU:0"
  attr {
    key: "dtype"
    value {
      type: DT_INT32
    }
  }
  attr {
    key: "value"
    value {
      tensor {
        dtype: DT_INT32
        tensor_shape {
          dim {
            size: 2
          }
        }
        tensor_content: "\001\000\000\000\001\000\000\000"
      }
    }
  }
}
node {
  name: "deep_logits/get_onehot/strided_slice"
  op: "StridedSlice"
  input: "INPUT/onehot_placeholder"
  input: "deep_logits/get_onehot/strided_slice/stack"
  input: "deep_logits/get_onehot/strided_slice/stack_1"
  input: "deep_logits/get_onehot/strided_slice/stack_2"
  device: "/device:GPU:0"
  attr {
    key: "Index"
    value {
      type: DT_INT32
    }
  }
  attr {
    key: "T"
    value {
      type: DT_STRING
    }
  }
  attr {
    key: "begin_mask"
    value {
      i: 1
    }
  }
  attr {
    key: "ellipsis_mask"
    value {
      i: 0
    }
  }
  attr {
    key: "end_mask"
    value {
      i: 1
    }
  }
  attr {
    key: "new_axis_mask"
    value {
      i: 0
    }
  }
  attr {
    key: "shrink_axis_mask"
    value {
      i: 2
    }
  }
}
node {
  name: "deep_logits/get_onehot/StringToHashBucketFast"
  op: "StringToHashBucketFast"
  input: "deep_logits/get_onehot/strided_slice"
  device: "/device:GPU:0"
  attr {
    key: "num_buckets"
    value {
      i: 41
    }
  }
}
node {
  name: "deep_logits/get_onehot/one_hot/on_value"
  op: "Const"
  device: "/device:GPU:0"
  attr {
    key: "dtype"
    value {
      type: DT_FLOAT
    }
  }
  attr {
    key: "value"
    value {
      tensor {
        dtype: DT_FLOAT
        tensor_shape {
        }
        float_val: 1.0
      }
    }
  }
}
node {
  name: "deep_logits/get_onehot/one_hot/off_value"
  op: "Const"
  device: "/device:GPU:0"
  attr {
    key: "dtype"
    value {
      type: DT_FLOAT
    }
  }
  attr {
    key: "value"
    value {
      tensor {
        dtype: DT_FLOAT
        tensor_shape {
        }
        float_val: 0.0
      }
    }
  }
}
node {
  name: "deep_logits/get_onehot/one_hot/depth"
  op: "Const"
  device: "/device:GPU:0"
  attr {
    key: "dtype"
    value {
      type: DT_INT32
    }
  }
  attr {
    key: "value"
    value {
      tensor {
        dtype: DT_INT32
        tensor_shape {
        }
        int_val: 41
      }
    }
  }
}
node {
  name: "deep_logits/get_onehot/one_hot"
  op: "OneHot"
  input: "deep_logits/get_onehot/StringToHashBucketFast"
  input: "deep_logits/get_onehot/one_hot/depth"
  input: "deep_logits/get_onehot/one_hot/on_value"
  input: "deep_logits/get_onehot/one_hot/off_value"
  device: "/device:GPU:0"
  attr {
    key: "T"
    value {
      type: DT_FLOAT
    }
  }
  attr {
    key: "TI"
    value {
      type: DT_INT64
    }
  }
  attr {
    key: "axis"
    value {
      i: -1
    }
  }
}
node {
  name: "deep_logits/get_onehot/strided_slice_1/stack"
  op: "Const"
  device: "/device:GPU:0"
  attr {
    key: "dtype"
    value {
      type: DT_INT32
    }
  }
  attr {
    key: "value"
    value {
      tensor {
        dtype: DT_INT32
        tensor_shape {
          dim {
            size: 2
          }
        }
        tensor_content: "\000\000\000\000\001\000\000\000"
      }
    }
  }
}
node {
  name: "deep_logits/get_onehot/strided_slice_1/stack_1"
  op: "Const"
  device: "/device:GPU:0"
  attr {
    key: "dtype"
    value {
      type: DT_INT32
    }
  }
  attr {
    key: "value"
    value {
      tensor {
        dtype: DT_INT32
        tensor_shape {
          dim {
            size: 2
          }
        }
        tensor_content: "\000\000\000\000\002\000\000\000"
      }
    }
  }
}
node {
  name: "deep_logits/get_onehot/strided_slice_1/stack_2"
  op: "Const"
  device: "/device:GPU:0"
  attr {
    key: "dtype"
    value {
      type: DT_INT32
    }
  }
  attr {
    key: "value"
    value {
      tensor {
        dtype: DT_INT32
        tensor_shape {
          dim {
            size: 2
          }
        }
        tensor_content: "\001\000\000\000\001\000\000\000"
      }
    }
  }
}
node {
  name: "deep_logits/get_onehot/strided_slice_1"
  op: "StridedSlice"
  input: "INPUT/onehot_placeholder"
  input: "deep_logits/get_onehot/strided_slice_1/stack"
  input: "deep_logits/get_onehot/strided_slice_1/stack_1"
  input: "deep_logits/get_onehot/strided_slice_1/stack_2"
  device: "/device:GPU:0"
  attr {
    key: "Index"
    value {
      type: DT_INT32
    }
  }
  attr {
    key: "T"
    value {
      type: DT_STRING
    }
  }
  attr {
    key: "begin_mask"
    value {
      i: 1
    }
  }
  attr {
    key: "ellipsis_mask"
    value {
      i: 0
    }
  }
  attr {
    key: "end_mask"
    value {
      i: 1
    }
  }
  attr {
    key: "new_axis_mask"
    value {
      i: 0
    }
  }
  attr {
    key: "shrink_axis_mask"
    value {
      i: 2
    }
  }
}
node {
  name: "deep_logits/get_onehot/StringToHashBucketFast_1"
  op: "StringToHashBucketFast"
  input: "deep_logits/get_onehot/strided_slice_1"
  device: "/device:GPU:0"
  attr {
    key: "num_buckets"
    value {
      i: 4
    }
  }
}
node {
  name: "deep_logits/get_onehot/one_hot_1/on_value"
  op: "Const"
  device: "/device:GPU:0"
  attr {
    key: "dtype"
    value {
      type: DT_FLOAT
    }
  }
  attr {
    key: "value"
    value {
      tensor {
        dtype: DT_FLOAT
        tensor_shape {
        }
        float_val: 1.0
      }
    }
  }
}
node {
  name: "deep_logits/get_onehot/one_hot_1/off_value"
  op: "Const"
  device: "/device:GPU:0"
  attr {
    key: "dtype"
    value {
      type: DT_FLOAT
    }
  }
  attr {
    key: "value"
    value {
      tensor {
        dtype: DT_FLOAT
        tensor_shape {
        }
        float_val: 0.0
      }
    }
  }
}
node {
  name: "deep_logits/get_onehot/one_hot_1/depth"
  op: "Const"
  device: "/device:GPU:0"
  attr {
    key: "dtype"
    value {
      type: DT_INT32
    }
  }
  attr {
    key: "value"
    value {
      tensor {
        dtype: DT_INT32
        tensor_shape {
        }
        int_val: 4
      }
    }
  }
}
node {
  name: "deep_logits/get_onehot/one_hot_1"
  op: "OneHot"
  input: "deep_logits/get_onehot/StringToHashBucketFast_1"
  input: "deep_logits/get_onehot/one_hot_1/depth"
  input: "deep_logits/get_onehot/one_hot_1/on_value"
  input: "deep_logits/get_onehot/one_hot_1/off_value"
  device: "/device:GPU:0"
  attr {
    key: "T"
    value {
      type: DT_FLOAT
    }
  }
  attr {
    key: "TI"
    value {
      type: DT_INT64
    }
  }
  attr {
    key: "axis"
    value {
      i: -1
    }
  }
}
node {
  name: "deep_logits/get_onehot/strided_slice_2/stack"
  op: "Const"
  device: "/device:GPU:0"
  attr {
    key: "dtype"
    value {
      type: DT_INT32
    }
  }
  attr {
    key: "value"
    value {
      tensor {
        dtype: DT_INT32
        tensor_shape {
          dim {
            size: 2
          }
        }
        tensor_content: "\000\000\000\000\002\000\000\000"
      }
    }
  }
}
node {
  name: "deep_logits/get_onehot/strided_slice_2/stack_1"
  op: "Const"
  device: "/device:GPU:0"
  attr {
    key: "dtype"
    value {
      type: DT_INT32
    }
  }
  attr {
    key: "value"
    value {
      tensor {
        dtype: DT_INT32
        tensor_shape {
          dim {
            size: 2
          }
        }
        tensor_content: "\000\000\000\000\003\000\000\000"
      }
    }
  }
}
node {
  name: "deep_logits/get_onehot/strided_slice_2/stack_2"
  op: "Const"
  device: "/device:GPU:0"
  attr {
    key: "dtype"
    value {
      type: DT_INT32
    }
  }
  attr {
    key: "value"
    value {
      tensor {
        dtype: DT_INT32
        tensor_shape {
          dim {
            size: 2
          }
        }
        tensor_content: "\001\000\000\000\001\000\000\000"
      }
    }
  }
}
node {
  name: "deep_logits/get_onehot/strided_slice_2"
  op: "StridedSlice"
  input: "INPUT/onehot_placeholder"
  input: "deep_logits/get_onehot/strided_slice_2/stack"
  input: "deep_logits/get_onehot/strided_slice_2/stack_1"
  input: "deep_logits/get_onehot/strided_slice_2/stack_2"
  device: "/device:GPU:0"
  attr {
    key: "Index"
    value {
      type: DT_INT32
    }
  }
  attr {
    key: "T"
    value {
      type: DT_STRING
    }
  }
  attr {
    key: "begin_mask"
    value {
      i: 1
    }
  }
  attr {
    key: "ellipsis_mask"
    value {
      i: 0
    }
  }
  attr {
    key: "end_mask"
    value {
      i: 1
    }
  }
  attr {
    key: "new_axis_mask"
    value {
      i: 0
    }
  }
  attr {
    key: "shrink_axis_mask"
    value {
      i: 2
    }
  }
}
node {
  name: "deep_logits/get_onehot/StringToHashBucketFast_2"
  op: "StringToHashBucketFast"
  input: "deep_logits/get_onehot/strided_slice_2"
  device: "/device:GPU:0"
  attr {
    key: "num_buckets"
    value {
      i: 20
    }
  }
}
node {
  name: "deep_logits/get_onehot/one_hot_2/on_value"
  op: "Const"
  device: "/device:GPU:0"
  attr {
    key: "dtype"
    value {
      type: DT_FLOAT
    }
  }
  attr {
    key: "value"
    value {
      tensor {
        dtype: DT_FLOAT
        tensor_shape {
        }
        float_val: 1.0
      }
    }
  }
}
node {
  name: "deep_logits/get_onehot/one_hot_2/off_value"
  op: "Const"
  device: "/device:GPU:0"
  attr {
    key: "dtype"
    value {
      type: DT_FLOAT
    }
  }
  attr {
    key: "value"
    value {
      tensor {
        dtype: DT_FLOAT
        tensor_shape {
        }
        float_val: 0.0
      }
    }
  }
}
node {
  name: "deep_logits/get_onehot/one_hot_2/depth"
  op: "Const"
  device: "/device:GPU:0"
  attr {
    key: "dtype"
    value {
      type: DT_INT32
    }
  }
  attr {
    key: "value"
    value {
      tensor {
        dtype: DT_INT32
        tensor_shape {
        }
        int_val: 20
      }
    }
  }
}
node {
  name: "deep_logits/get_onehot/one_hot_2"
  op: "OneHot"
  input: "deep_logits/get_onehot/StringToHashBucketFast_2"
  input: "deep_logits/get_onehot/one_hot_2/depth"
  input: "deep_logits/get_onehot/one_hot_2/on_value"
  input: "deep_logits/get_onehot/one_hot_2/off_value"
  device: "/device:GPU:0"
  attr {
    key: "T"
    value {
      type: DT_FLOAT
    }
  }
  attr {
    key: "TI"
    value {
      type: DT_INT64
    }
  }
  attr {
    key: "axis"
    value {
      i: -1
    }
  }
}
node {
  name: "deep_logits/get_onehot/strided_slice_3/stack"
  op: "Const"
  device: "/device:GPU:0"
  attr {
    key: "dtype"
    value {
      type: DT_INT32
    }
  }
  attr {
    key: "value"
    value {
      tensor {
        dtype: DT_INT32
        tensor_shape {
          dim {
            size: 2
          }
        }
        tensor_content: "\000\000\000\000\003\000\000\000"
      }
    }
  }
}
node {
  name: "deep_logits/get_onehot/strided_slice_3/stack_1"
  op: "Const"
  device: "/device:GPU:0"
  attr {
    key: "dtype"
    value {
      type: DT_INT32
    }
  }
  attr {
    key: "value"
    value {
      tensor {
        dtype: DT_INT32
        tensor_shape {
          dim {
            size: 2
          }
        }
        tensor_content: "\000\000\000\000\004\000\000\000"
      }
    }
  }
}
node {
  name: "deep_logits/get_onehot/strided_slice_3/stack_2"
  op: "Const"
  device: "/device:GPU:0"
  attr {
    key: "dtype"
    value {
      type: DT_INT32
    }
  }
  attr {
    key: "value"
    value {
      tensor {
        dtype: DT_INT32
        tensor_shape {
          dim {
            size: 2
          }
        }
        tensor_content: "\001\000\000\000\001\000\000\000"
      }
    }
  }
}
node {
  name: "deep_logits/get_onehot/strided_slice_3"
  op: "StridedSlice"
  input: "INPUT/onehot_placeholder"
  input: "deep_logits/get_onehot/strided_slice_3/stack"
  input: "deep_logits/get_onehot/strided_slice_3/stack_1"
  input: "deep_logits/get_onehot/strided_slice_3/stack_2"
  device: "/device:GPU:0"
  attr {
    key: "Index"
    value {
      type: DT_INT32
    }
  }
  attr {
    key: "T"
    value {
      type: DT_STRING
    }
  }
  attr {
    key: "begin_mask"
    value {
      i: 1
    }
  }
  attr {
    key: "ellipsis_mask"
    value {
      i: 0
    }
  }
  attr {
    key: "end_mask"
    value {
      i: 1
    }
  }
  attr {
    key: "new_axis_mask"
    value {
      i: 0
    }
  }
  attr {
    key: "shrink_axis_mask"
    value {
      i: 2
    }
  }
}
node {
  name: "deep_logits/get_onehot/StringToHashBucketFast_3"
  op: "StringToHashBucketFast"
  input: "deep_logits/get_onehot/strided_slice_3"
  device: "/device:GPU:0"
  attr {
    key: "num_buckets"
    value {
      i: 10
    }
  }
}
node {
  name: "deep_logits/get_onehot/one_hot_3/on_value"
  op: "Const"
  device: "/device:GPU:0"
  attr {
    key: "dtype"
    value {
      type: DT_FLOAT
    }
  }
  attr {
    key: "value"
    value {
      tensor {
        dtype: DT_FLOAT
        tensor_shape {
        }
        float_val: 1.0
      }
    }
  }
}
node {
  name: "deep_logits/get_onehot/one_hot_3/off_value"
  op: "Const"
  device: "/device:GPU:0"
  attr {
    key: "dtype"
    value {
      type: DT_FLOAT
    }
  }
  attr {
    key: "value"
    value {
      tensor {
        dtype: DT_FLOAT
        tensor_shape {
        }
        float_val: 0.0
      }
    }
  }
}
node {
  name: "deep_logits/get_onehot/one_hot_3/depth"
  op: "Const"
  device: "/device:GPU:0"
  attr {
    key: "dtype"
    value {
      type: DT_INT32
    }
  }
  attr {
    key: "value"
    value {
      tensor {
        dtype: DT_INT32
        tensor_shape {
        }
        int_val: 10
      }
    }
  }
}
node {
  name: "deep_logits/get_onehot/one_hot_3"
  op: "OneHot"
  input: "deep_logits/get_onehot/StringToHashBucketFast_3"
  input: "deep_logits/get_onehot/one_hot_3/depth"
  input: "deep_logits/get_onehot/one_hot_3/on_value"
  input: "deep_logits/get_onehot/one_hot_3/off_value"
  device: "/device:GPU:0"
  attr {
    key: "T"
    value {
      type: DT_FLOAT
    }
  }
  attr {
    key: "TI"
    value {
      type: DT_INT64
    }
  }
  attr {
    key: "axis"
    value {
      i: -1
    }
  }
}
node {
  name: "deep_logits/get_onehot/strided_slice_4/stack"
  op: "Const"
  device: "/device:GPU:0"
  attr {
    key: "dtype"
    value {
      type: DT_INT32
    }
  }
  attr {
    key: "value"
    value {
      tensor {
        dtype: DT_INT32
        tensor_shape {
          dim {
            size: 2
          }
        }
        tensor_content: "\000\000\000\000\004\000\000\000"
      }
    }
  }
}
node {
  name: "deep_logits/get_onehot/strided_slice_4/stack_1"
  op: "Const"
  device: "/device:GPU:0"
  attr {
    key: "dtype"
    value {
      type: DT_INT32
    }
  }
  attr {
    key: "value"
    value {
      tensor {
        dtype: DT_INT32
        tensor_shape {
          dim {
            size: 2
          }
        }
        tensor_content: "\000\000\000\000\005\000\000\000"
      }
    }
  }
}
node {
  name: "deep_logits/get_onehot/strided_slice_4/stack_2"
  op: "Const"
  device: "/device:GPU:0"
  attr {
    key: "dtype"
    value {
      type: DT_INT32
    }
  }
  attr {
    key: "value"
    value {
      tensor {
        dtype: DT_INT32
        tensor_shape {
          dim {
            size: 2
          }
        }
        tensor_content: "\001\000\000\000\001\000\000\000"
      }
    }
  }
}
node {
  name: "deep_logits/get_onehot/strided_slice_4"
  op: "StridedSlice"
  input: "INPUT/onehot_placeholder"
  input: "deep_logits/get_onehot/strided_slice_4/stack"
  input: "deep_logits/get_onehot/strided_slice_4/stack_1"
  input: "deep_logits/get_onehot/strided_slice_4/stack_2"
  device: "/device:GPU:0"
  attr {
    key: "Index"
    value {
      type: DT_INT32
    }
  }
  attr {
    key: "T"
    value {
      type: DT_STRING
    }
  }
  attr {
    key: "begin_mask"
    value {
      i: 1
    }
  }
  attr {
    key: "ellipsis_mask"
    value {
      i: 0
    }
  }
  attr {
    key: "end_mask"
    value {
      i: 1
    }
  }
  attr {
    key: "new_axis_mask"
    value {
      i: 0
    }
  }
  attr {
    key: "shrink_axis_mask"
    value {
      i: 2
    }
  }
}
node {
  name: "deep_logits/get_onehot/StringToNumber"
  op: "StringToNumber"
  input: "deep_logits/get_onehot/strided_slice_4"
  device: "/device:GPU:0"
  attr {
    key: "out_type"
    value {
      type: DT_INT32
    }
  }
}
node {
  name: "deep_logits/get_onehot/one_hot_4/on_value"
  op: "Const"
  device: "/device:GPU:0"
  attr {
    key: "dtype"
    value {
      type: DT_FLOAT
    }
  }
  attr {
    key: "value"
    value {
      tensor {
        dtype: DT_FLOAT
        tensor_shape {
        }
        float_val: 1.0
      }
    }
  }
}
node {
  name: "deep_logits/get_onehot/one_hot_4/off_value"
  op: "Const"
  device: "/device:GPU:0"
  attr {
    key: "dtype"
    value {
      type: DT_FLOAT
    }
  }
  attr {
    key: "value"
    value {
      tensor {
        dtype: DT_FLOAT
        tensor_shape {
        }
        float_val: 0.0
      }
    }
  }
}
node {
  name: "deep_logits/get_onehot/one_hot_4/depth"
  op: "Const"
  device: "/device:GPU:0"
  attr {
    key: "dtype"
    value {
      type: DT_INT32
    }
  }
  attr {
    key: "value"
    value {
      tensor {
        dtype: DT_INT32
        tensor_shape {
        }
        int_val: 24
      }
    }
  }
}
node {
  name: "deep_logits/get_onehot/one_hot_4"
  op: "OneHot"
  input: "deep_logits/get_onehot/StringToNumber"
  input: "deep_logits/get_onehot/one_hot_4/depth"
  input: "deep_logits/get_onehot/one_hot_4/on_value"
  input: "deep_logits/get_onehot/one_hot_4/off_value"
  device: "/device:GPU:0"
  attr {
    key: "T"
    value {
      type: DT_FLOAT
    }
  }
  attr {
    key: "TI"
    value {
      type: DT_INT32
    }
  }
  attr {
    key: "axis"
    value {
      i: -1
    }
  }
}
node {
  name: "deep_logits/get_onehot/strided_slice_5/stack"
  op: "Const"
  device: "/device:GPU:0"
  attr {
    key: "dtype"
    value {
      type: DT_INT32
    }
  }
  attr {
    key: "value"
    value {
      tensor {
        dtype: DT_INT32
        tensor_shape {
          dim {
            size: 2
          }
        }
        tensor_content: "\000\000\000\000\005\000\000\000"
      }
    }
  }
}
node {
  name: "deep_logits/get_onehot/strided_slice_5/stack_1"
  op: "Const"
  device: "/device:GPU:0"
  attr {
    key: "dtype"
    value {
      type: DT_INT32
    }
  }
  attr {
    key: "value"
    value {
      tensor {
        dtype: DT_INT32
        tensor_shape {
          dim {
            size: 2
          }
        }
        tensor_content: "\000\000\000\000\006\000\000\000"
      }
    }
  }
}
node {
  name: "deep_logits/get_onehot/strided_slice_5/stack_2"
  op: "Const"
  device: "/device:GPU:0"
  attr {
    key: "dtype"
    value {
      type: DT_INT32
    }
  }
  attr {
    key: "value"
    value {
      tensor {
        dtype: DT_INT32
        tensor_shape {
          dim {
            size: 2
          }
        }
        tensor_content: "\001\000\000\000\001\000\000\000"
      }
    }
  }
}
node {
  name: "deep_logits/get_onehot/strided_slice_5"
  op: "StridedSlice"
  input: "INPUT/onehot_placeholder"
  input: "deep_logits/get_onehot/strided_slice_5/stack"
  input: "deep_logits/get_onehot/strided_slice_5/stack_1"
  input: "deep_logits/get_onehot/strided_slice_5/stack_2"
  device: "/device:GPU:0"
  attr {
    key: "Index"
    value {
      type: DT_INT32
    }
  }
  attr {
    key: "T"
    value {
      type: DT_STRING
    }
  }
  attr {
    key: "begin_mask"
    value {
      i: 1
    }
  }
  attr {
    key: "ellipsis_mask"
    value {
      i: 0
    }
  }
  attr {
    key: "end_mask"
    value {
      i: 1
    }
  }
  attr {
    key: "new_axis_mask"
    value {
      i: 0
    }
  }
  attr {
    key: "shrink_axis_mask"
    value {
      i: 2
    }
  }
}
node {
  name: "deep_logits/get_onehot/StringToHashBucketFast_4"
  op: "StringToHashBucketFast"
  input: "deep_logits/get_onehot/strided_slice_5"
  device: "/device:GPU:0"
  attr {
    key: "num_buckets"
    value {
      i: 15
    }
  }
}
node {
  name: "deep_logits/get_onehot/one_hot_5/on_value"
  op: "Const"
  device: "/device:GPU:0"
  attr {
    key: "dtype"
    value {
      type: DT_FLOAT
    }
  }
  attr {
    key: "value"
    value {
      tensor {
        dtype: DT_FLOAT
        tensor_shape {
        }
        float_val: 1.0
      }
    }
  }
}
node {
  name: "deep_logits/get_onehot/one_hot_5/off_value"
  op: "Const"
  device: "/device:GPU:0"
  attr {
    key: "dtype"
    value {
      type: DT_FLOAT
    }
  }
  attr {
    key: "value"
    value {
      tensor {
        dtype: DT_FLOAT
        tensor_shape {
        }
        float_val: 0.0
      }
    }
  }
}
node {
  name: "deep_logits/get_onehot/one_hot_5/depth"
  op: "Const"
  device: "/device:GPU:0"
  attr {
    key: "dtype"
    value {
      type: DT_INT32
    }
  }
  attr {
    key: "value"
    value {
      tensor {
        dtype: DT_INT32
        tensor_shape {
        }
        int_val: 15
      }
    }
  }
}
node {
  name: "deep_logits/get_onehot/one_hot_5"
  op: "OneHot"
  input: "deep_logits/get_onehot/StringToHashBucketFast_4"
  input: "deep_logits/get_onehot/one_hot_5/depth"
  input: "deep_logits/get_onehot/one_hot_5/on_value"
  input: "deep_logits/get_onehot/one_hot_5/off_value"
  device: "/device:GPU:0"
  attr {
    key: "T"
    value {
      type: DT_FLOAT
    }
  }
  attr {
    key: "TI"
    value {
      type: DT_INT64
    }
  }
  attr {
    key: "axis"
    value {
      i: -1
    }
  }
}
node {
  name: "deep_logits/get_onehot/strided_slice_6/stack"
  op: "Const"
  device: "/device:GPU:0"
  attr {
    key: "dtype"
    value {
      type: DT_INT32
    }
  }
  attr {
    key: "value"
    value {
      tensor {
        dtype: DT_INT32
        tensor_shape {
          dim {
            size: 2
          }
        }
        tensor_content: "\000\000\000\000\006\000\000\000"
      }
    }
  }
}
node {
  name: "deep_logits/get_onehot/strided_slice_6/stack_1"
  op: "Const"
  device: "/device:GPU:0"
  attr {
    key: "dtype"
    value {
      type: DT_INT32
    }
  }
  attr {
    key: "value"
    value {
      tensor {
        dtype: DT_INT32
        tensor_shape {
          dim {
            size: 2
          }
        }
        tensor_content: "\000\000\000\000\007\000\000\000"
      }
    }
  }
}
node {
  name: "deep_logits/get_onehot/strided_slice_6/stack_2"
  op: "Const"
  device: "/device:GPU:0"
  attr {
    key: "dtype"
    value {
      type: DT_INT32
    }
  }
  attr {
    key: "value"
    value {
      tensor {
        dtype: DT_INT32
        tensor_shape {
          dim {
            size: 2
          }
        }
        tensor_content: "\001\000\000\000\001\000\000\000"
      }
    }
  }
}
node {
  name: "deep_logits/get_onehot/strided_slice_6"
  op: "StridedSlice"
  input: "INPUT/onehot_placeholder"
  input: "deep_logits/get_onehot/strided_slice_6/stack"
  input: "deep_logits/get_onehot/strided_slice_6/stack_1"
  input: "deep_logits/get_onehot/strided_slice_6/stack_2"
  device: "/device:GPU:0"
  attr {
    key: "Index"
    value {
      type: DT_INT32
    }
  }
  attr {
    key: "T"
    value {
      type: DT_STRING
    }
  }
  attr {
    key: "begin_mask"
    value {
      i: 1
    }
  }
  attr {
    key: "ellipsis_mask"
    value {
      i: 0
    }
  }
  attr {
    key: "end_mask"
    value {
      i: 1
    }
  }
  attr {
    key: "new_axis_mask"
    value {
      i: 0
    }
  }
  attr {
    key: "shrink_axis_mask"
    value {
      i: 2
    }
  }
}
node {
  name: "deep_logits/get_onehot/StringToNumber_1"
  op: "StringToNumber"
  input: "deep_logits/get_onehot/strided_slice_6"
  device: "/device:GPU:0"
  attr {
    key: "out_type"
    value {
      type: DT_INT32
    }
  }
}
node {
  name: "deep_logits/get_onehot/one_hot_6/on_value"
  op: "Const"
  device: "/device:GPU:0"
  attr {
    key: "dtype"
    value {
      type: DT_FLOAT
    }
  }
  attr {
    key: "value"
    value {
      tensor {
        dtype: DT_FLOAT
        tensor_shape {
        }
        float_val: 1.0
      }
    }
  }
}
node {
  name: "deep_logits/get_onehot/one_hot_6/off_value"
  op: "Const"
  device: "/device:GPU:0"
  attr {
    key: "dtype"
    value {
      type: DT_FLOAT
    }
  }
  attr {
    key: "value"
    value {
      tensor {
        dtype: DT_FLOAT
        tensor_shape {
        }
        float_val: 0.0
      }
    }
  }
}
node {
  name: "deep_logits/get_onehot/one_hot_6/depth"
  op: "Const"
  device: "/device:GPU:0"
  attr {
    key: "dtype"
    value {
      type: DT_INT32
    }
  }
  attr {
    key: "value"
    value {
      tensor {
        dtype: DT_INT32
        tensor_shape {
        }
        int_val: 2
      }
    }
  }
}
node {
  name: "deep_logits/get_onehot/one_hot_6"
  op: "OneHot"
  input: "deep_logits/get_onehot/StringToNumber_1"
  input: "deep_logits/get_onehot/one_hot_6/depth"
  input: "deep_logits/get_onehot/one_hot_6/on_value"
  input: "deep_logits/get_onehot/one_hot_6/off_value"
  device: "/device:GPU:0"
  attr {
    key: "T"
    value {
      type: DT_FLOAT
    }
  }
  attr {
    key: "TI"
    value {
      type: DT_INT32
    }
  }
  attr {
    key: "axis"
    value {
      i: -1
    }
  }
}
node {
  name: "deep_logits/get_onehot/strided_slice_7/stack"
  op: "Const"
  device: "/device:GPU:0"
  attr {
    key: "dtype"
    value {
      type: DT_INT32
    }
  }
  attr {
    key: "value"
    value {
      tensor {
        dtype: DT_INT32
        tensor_shape {
          dim {
            size: 2
          }
        }
        tensor_content: "\000\000\000\000\007\000\000\000"
      }
    }
  }
}
node {
  name: "deep_logits/get_onehot/strided_slice_7/stack_1"
  op: "Const"
  device: "/device:GPU:0"
  attr {
    key: "dtype"
    value {
      type: DT_INT32
    }
  }
  attr {
    key: "value"
    value {
      tensor {
        dtype: DT_INT32
        tensor_shape {
          dim {
            size: 2
          }
        }
        tensor_content: "\000\000\000\000\010\000\000\000"
      }
    }
  }
}
node {
  name: "deep_logits/get_onehot/strided_slice_7/stack_2"
  op: "Const"
  device: "/device:GPU:0"
  attr {
    key: "dtype"
    value {
      type: DT_INT32
    }
  }
  attr {
    key: "value"
    value {
      tensor {
        dtype: DT_INT32
        tensor_shape {
          dim {
            size: 2
          }
        }
        tensor_content: "\001\000\000\000\001\000\000\000"
      }
    }
  }
}
node {
  name: "deep_logits/get_onehot/strided_slice_7"
  op: "StridedSlice"
  input: "INPUT/onehot_placeholder"
  input: "deep_logits/get_onehot/strided_slice_7/stack"
  input: "deep_logits/get_onehot/strided_slice_7/stack_1"
  input: "deep_logits/get_onehot/strided_slice_7/stack_2"
  device: "/device:GPU:0"
  attr {
    key: "Index"
    value {
      type: DT_INT32
    }
  }
  attr {
    key: "T"
    value {
      type: DT_STRING
    }
  }
  attr {
    key: "begin_mask"
    value {
      i: 1
    }
  }
  attr {
    key: "ellipsis_mask"
    value {
      i: 0
    }
  }
  attr {
    key: "end_mask"
    value {
      i: 1
    }
  }
  attr {
    key: "new_axis_mask"
    value {
      i: 0
    }
  }
  attr {
    key: "shrink_axis_mask"
    value {
      i: 2
    }
  }
}
node {
  name: "deep_logits/get_onehot/StringToHashBucketFast_5"
  op: "StringToHashBucketFast"
  input: "deep_logits/get_onehot/strided_slice_7"
  device: "/device:GPU:0"
  attr {
    key: "num_buckets"
    value {
      i: 25
    }
  }
}
node {
  name: "deep_logits/get_onehot/one_hot_7/on_value"
  op: "Const"
  device: "/device:GPU:0"
  attr {
    key: "dtype"
    value {
      type: DT_FLOAT
    }
  }
  attr {
    key: "value"
    value {
      tensor {
        dtype: DT_FLOAT
        tensor_shape {
        }
        float_val: 1.0
      }
    }
  }
}
node {
  name: "deep_logits/get_onehot/one_hot_7/off_value"
  op: "Const"
  device: "/device:GPU:0"
  attr {
    key: "dtype"
    value {
      type: DT_FLOAT
    }
  }
  attr {
    key: "value"
    value {
      tensor {
        dtype: DT_FLOAT
        tensor_shape {
        }
        float_val: 0.0
      }
    }
  }
}
node {
  name: "deep_logits/get_onehot/one_hot_7/depth"
  op: "Const"
  device: "/device:GPU:0"
  attr {
    key: "dtype"
    value {
      type: DT_INT32
    }
  }
  attr {
    key: "value"
    value {
      tensor {
        dtype: DT_INT32
        tensor_shape {
        }
        int_val: 25
      }
    }
  }
}
node {
  name: "deep_logits/get_onehot/one_hot_7"
  op: "OneHot"
  input: "deep_logits/get_onehot/StringToHashBucketFast_5"
  input: "deep_logits/get_onehot/one_hot_7/depth"
  input: "deep_logits/get_onehot/one_hot_7/on_value"
  input: "deep_logits/get_onehot/one_hot_7/off_value"
  device: "/device:GPU:0"
  attr {
    key: "T"
    value {
      type: DT_FLOAT
    }
  }
  attr {
    key: "TI"
    value {
      type: DT_INT64
    }
  }
  attr {
    key: "axis"
    value {
      i: -1
    }
  }
}
node {
  name: "deep_logits/get_onehot/strided_slice_8/stack"
  op: "Const"
  device: "/device:GPU:0"
  attr {
    key: "dtype"
    value {
      type: DT_INT32
    }
  }
  attr {
    key: "value"
    value {
      tensor {
        dtype: DT_INT32
        tensor_shape {
          dim {
            size: 2
          }
        }
        tensor_content: "\000\000\000\000\010\000\000\000"
      }
    }
  }
}
node {
  name: "deep_logits/get_onehot/strided_slice_8/stack_1"
  op: "Const"
  device: "/device:GPU:0"
  attr {
    key: "dtype"
    value {
      type: DT_INT32
    }
  }
  attr {
    key: "value"
    value {
      tensor {
        dtype: DT_INT32
        tensor_shape {
          dim {
            size: 2
          }
        }
        tensor_content: "\000\000\000\000\t\000\000\000"
      }
    }
  }
}
node {
  name: "deep_logits/get_onehot/strided_slice_8/stack_2"
  op: "Const"
  device: "/device:GPU:0"
  attr {
    key: "dtype"
    value {
      type: DT_INT32
    }
  }
  attr {
    key: "value"
    value {
      tensor {
        dtype: DT_INT32
        tensor_shape {
          dim {
            size: 2
          }
        }
        tensor_content: "\001\000\000\000\001\000\000\000"
      }
    }
  }
}
node {
  name: "deep_logits/get_onehot/strided_slice_8"
  op: "StridedSlice"
  input: "INPUT/onehot_placeholder"
  input: "deep_logits/get_onehot/strided_slice_8/stack"
  input: "deep_logits/get_onehot/strided_slice_8/stack_1"
  input: "deep_logits/get_onehot/strided_slice_8/stack_2"
  device: "/device:GPU:0"
  attr {
    key: "Index"
    value {
      type: DT_INT32
    }
  }
  attr {
    key: "T"
    value {
      type: DT_STRING
    }
  }
  attr {
    key: "begin_mask"
    value {
      i: 1
    }
  }
  attr {
    key: "ellipsis_mask"
    value {
      i: 0
    }
  }
  attr {
    key: "end_mask"
    value {
      i: 1
    }
  }
  attr {
    key: "new_axis_mask"
    value {
      i: 0
    }
  }
  attr {
    key: "shrink_axis_mask"
    value {
      i: 2
    }
  }
}
node {
  name: "deep_logits/get_onehot/StringToHashBucketFast_6"
  op: "StringToHashBucketFast"
  input: "deep_logits/get_onehot/strided_slice_8"
  device: "/device:GPU:0"
  attr {
    key: "num_buckets"
    value {
      i: 2
    }
  }
}
node {
  name: "deep_logits/get_onehot/one_hot_8/on_value"
  op: "Const"
  device: "/device:GPU:0"
  attr {
    key: "dtype"
    value {
      type: DT_FLOAT
    }
  }
  attr {
    key: "value"
    value {
      tensor {
        dtype: DT_FLOAT
        tensor_shape {
        }
        float_val: 1.0
      }
    }
  }
}
node {
  name: "deep_logits/get_onehot/one_hot_8/off_value"
  op: "Const"
  device: "/device:GPU:0"
  attr {
    key: "dtype"
    value {
      type: DT_FLOAT
    }
  }
  attr {
    key: "value"
    value {
      tensor {
        dtype: DT_FLOAT
        tensor_shape {
        }
        float_val: 0.0
      }
    }
  }
}
node {
  name: "deep_logits/get_onehot/one_hot_8/depth"
  op: "Const"
  device: "/device:GPU:0"
  attr {
    key: "dtype"
    value {
      type: DT_INT32
    }
  }
  attr {
    key: "value"
    value {
      tensor {
        dtype: DT_INT32
        tensor_shape {
        }
        int_val: 2
      }
    }
  }
}
node {
  name: "deep_logits/get_onehot/one_hot_8"
  op: "OneHot"
  input: "deep_logits/get_onehot/StringToHashBucketFast_6"
  input: "deep_logits/get_onehot/one_hot_8/depth"
  input: "deep_logits/get_onehot/one_hot_8/on_value"
  input: "deep_logits/get_onehot/one_hot_8/off_value"
  device: "/device:GPU:0"
  attr {
    key: "T"
    value {
      type: DT_FLOAT
    }
  }
  attr {
    key: "TI"
    value {
      type: DT_INT64
    }
  }
  attr {
    key: "axis"
    value {
      i: -1
    }
  }
}
node {
  name: "deep_logits/get_onehot/strided_slice_9/stack"
  op: "Const"
  device: "/device:GPU:0"
  attr {
    key: "dtype"
    value {
      type: DT_INT32
    }
  }
  attr {
    key: "value"
    value {
      tensor {
        dtype: DT_INT32
        tensor_shape {
          dim {
            size: 2
          }
        }
        tensor_content: "\000\000\000\000\t\000\000\000"
      }
    }
  }
}
node {
  name: "deep_logits/get_onehot/strided_slice_9/stack_1"
  op: "Const"
  device: "/device:GPU:0"
  attr {
    key: "dtype"
    value {
      type: DT_INT32
    }
  }
  attr {
    key: "value"
    value {
      tensor {
        dtype: DT_INT32
        tensor_shape {
          dim {
            size: 2
          }
        }
        tensor_content: "\000\000\000\000\n\000\000\000"
      }
    }
  }
}
node {
  name: "deep_logits/get_onehot/strided_slice_9/stack_2"
  op: "Const"
  device: "/device:GPU:0"
  attr {
    key: "dtype"
    value {
      type: DT_INT32
    }
  }
  attr {
    key: "value"
    value {
      tensor {
        dtype: DT_INT32
        tensor_shape {
          dim {
            size: 2
          }
        }
        tensor_content: "\001\000\000\000\001\000\000\000"
      }
    }
  }
}
node {
  name: "deep_logits/get_onehot/strided_slice_9"
  op: "StridedSlice"
  input: "INPUT/onehot_placeholder"
  input: "deep_logits/get_onehot/strided_slice_9/stack"
  input: "deep_logits/get_onehot/strided_slice_9/stack_1"
  input: "deep_logits/get_onehot/strided_slice_9/stack_2"
  device: "/device:GPU:0"
  attr {
    key: "Index"
    value {
      type: DT_INT32
    }
  }
  attr {
    key: "T"
    value {
      type: DT_STRING
    }
  }
  attr {
    key: "begin_mask"
    value {
      i: 1
    }
  }
  attr {
    key: "ellipsis_mask"
    value {
      i: 0
    }
  }
  attr {
    key: "end_mask"
    value {
      i: 1
    }
  }
  attr {
    key: "new_axis_mask"
    value {
      i: 0
    }
  }
  attr {
    key: "shrink_axis_mask"
    value {
      i: 2
    }
  }
}
node {
  name: "deep_logits/get_onehot/StringToHashBucketFast_7"
  op: "StringToHashBucketFast"
  input: "deep_logits/get_onehot/strided_slice_9"
  device: "/device:GPU:0"
  attr {
    key: "num_buckets"
    value {
      i: 12
    }
  }
}
node {
  name: "deep_logits/get_onehot/one_hot_9/on_value"
  op: "Const"
  device: "/device:GPU:0"
  attr {
    key: "dtype"
    value {
      type: DT_FLOAT
    }
  }
  attr {
    key: "value"
    value {
      tensor {
        dtype: DT_FLOAT
        tensor_shape {
        }
        float_val: 1.0
      }
    }
  }
}
node {
  name: "deep_logits/get_onehot/one_hot_9/off_value"
  op: "Const"
  device: "/device:GPU:0"
  attr {
    key: "dtype"
    value {
      type: DT_FLOAT
    }
  }
  attr {
    key: "value"
    value {
      tensor {
        dtype: DT_FLOAT
        tensor_shape {
        }
        float_val: 0.0
      }
    }
  }
}
node {
  name: "deep_logits/get_onehot/one_hot_9/depth"
  op: "Const"
  device: "/device:GPU:0"
  attr {
    key: "dtype"
    value {
      type: DT_INT32
    }
  }
  attr {
    key: "value"
    value {
      tensor {
        dtype: DT_INT32
        tensor_shape {
        }
        int_val: 12
      }
    }
  }
}
node {
  name: "deep_logits/get_onehot/one_hot_9"
  op: "OneHot"
  input: "deep_logits/get_onehot/StringToHashBucketFast_7"
  input: "deep_logits/get_onehot/one_hot_9/depth"
  input: "deep_logits/get_onehot/one_hot_9/on_value"
  input: "deep_logits/get_onehot/one_hot_9/off_value"
  device: "/device:GPU:0"
  attr {
    key: "T"
    value {
      type: DT_FLOAT
    }
  }
  attr {
    key: "TI"
    value {
      type: DT_INT64
    }
  }
  attr {
    key: "axis"
    value {
      i: -1
    }
  }
}
node {
  name: "deep_logits/get_onehot/strided_slice_10/stack"
  op: "Const"
  device: "/device:GPU:0"
  attr {
    key: "dtype"
    value {
      type: DT_INT32
    }
  }
  attr {
    key: "value"
    value {
      tensor {
        dtype: DT_INT32
        tensor_shape {
          dim {
            size: 2
          }
        }
        tensor_content: "\000\000\000\000\n\000\000\000"
      }
    }
  }
}
node {
  name: "deep_logits/get_onehot/strided_slice_10/stack_1"
  op: "Const"
  device: "/device:GPU:0"
  attr {
    key: "dtype"
    value {
      type: DT_INT32
    }
  }
  attr {
    key: "value"
    value {
      tensor {
        dtype: DT_INT32
        tensor_shape {
          dim {
            size: 2
          }
        }
        tensor_content: "\000\000\000\000\013\000\000\000"
      }
    }
  }
}
node {
  name: "deep_logits/get_onehot/strided_slice_10/stack_2"
  op: "Const"
  device: "/device:GPU:0"
  attr {
    key: "dtype"
    value {
      type: DT_INT32
    }
  }
  attr {
    key: "value"
    value {
      tensor {
        dtype: DT_INT32
        tensor_shape {
          dim {
            size: 2
          }
        }
        tensor_content: "\001\000\000\000\001\000\000\000"
      }
    }
  }
}
node {
  name: "deep_logits/get_onehot/strided_slice_10"
  op: "StridedSlice"
  input: "INPUT/onehot_placeholder"
  input: "deep_logits/get_onehot/strided_slice_10/stack"
  input: "deep_logits/get_onehot/strided_slice_10/stack_1"
  input: "deep_logits/get_onehot/strided_slice_10/stack_2"
  device: "/device:GPU:0"
  attr {
    key: "Index"
    value {
      type: DT_INT32
    }
  }
  attr {
    key: "T"
    value {
      type: DT_STRING
    }
  }
  attr {
    key: "begin_mask"
    value {
      i: 1
    }
  }
  attr {
    key: "ellipsis_mask"
    value {
      i: 0
    }
  }
  attr {
    key: "end_mask"
    value {
      i: 1
    }
  }
  attr {
    key: "new_axis_mask"
    value {
      i: 0
    }
  }
  attr {
    key: "shrink_axis_mask"
    value {
      i: 2
    }
  }
}
node {
  name: "deep_logits/get_onehot/StringToHashBucketFast_8"
  op: "StringToHashBucketFast"
  input: "deep_logits/get_onehot/strided_slice_10"
  device: "/device:GPU:0"
  attr {
    key: "num_buckets"
    value {
      i: 36
    }
  }
}
node {
  name: "deep_logits/get_onehot/one_hot_10/on_value"
  op: "Const"
  device: "/device:GPU:0"
  attr {
    key: "dtype"
    value {
      type: DT_FLOAT
    }
  }
  attr {
    key: "value"
    value {
      tensor {
        dtype: DT_FLOAT
        tensor_shape {
        }
        float_val: 1.0
      }
    }
  }
}
node {
  name: "deep_logits/get_onehot/one_hot_10/off_value"
  op: "Const"
  device: "/device:GPU:0"
  attr {
    key: "dtype"
    value {
      type: DT_FLOAT
    }
  }
  attr {
    key: "value"
    value {
      tensor {
        dtype: DT_FLOAT
        tensor_shape {
        }
        float_val: 0.0
      }
    }
  }
}
node {
  name: "deep_logits/get_onehot/one_hot_10/depth"
  op: "Const"
  device: "/device:GPU:0"
  attr {
    key: "dtype"
    value {
      type: DT_INT32
    }
  }
  attr {
    key: "value"
    value {
      tensor {
        dtype: DT_INT32
        tensor_shape {
        }
        int_val: 36
      }
    }
  }
}
node {
  name: "deep_logits/get_onehot/one_hot_10"
  op: "OneHot"
  input: "deep_logits/get_onehot/StringToHashBucketFast_8"
  input: "deep_logits/get_onehot/one_hot_10/depth"
  input: "deep_logits/get_onehot/one_hot_10/on_value"
  input: "deep_logits/get_onehot/one_hot_10/off_value"
  device: "/device:GPU:0"
  attr {
    key: "T"
    value {
      type: DT_FLOAT
    }
  }
  attr {
    key: "TI"
    value {
      type: DT_INT64
    }
  }
  attr {
    key: "axis"
    value {
      i: -1
    }
  }
}
node {
  name: "deep_logits/get_onehot/concat/axis"
  op: "Const"
  device: "/device:GPU:0"
  attr {
    key: "dtype"
    value {
      type: DT_INT32
    }
  }
  attr {
    key: "value"
    value {
      tensor {
        dtype: DT_INT32
        tensor_shape {
        }
        int_val: 1
      }
    }
  }
}
node {
  name: "deep_logits/get_onehot/concat"
  op: "ConcatV2"
  input: "deep_logits/get_onehot/one_hot"
  input: "deep_logits/get_onehot/one_hot_1"
  input: "deep_logits/get_onehot/one_hot_2"
  input: "deep_logits/get_onehot/one_hot_3"
  input: "deep_logits/get_onehot/one_hot_4"
  input: "deep_logits/get_onehot/one_hot_5"
  input: "deep_logits/get_onehot/one_hot_6"
  input: "deep_logits/get_onehot/one_hot_7"
  input: "deep_logits/get_onehot/one_hot_8"
  input: "deep_logits/get_onehot/one_hot_9"
  input: "deep_logits/get_onehot/one_hot_10"
  input: "deep_logits/get_onehot/concat/axis"
  device: "/device:GPU:0"
  attr {
    key: "N"
    value {
      i: 11
    }
  }
  attr {
    key: "T"
    value {
      type: DT_FLOAT
    }
  }
  attr {
    key: "Tidx"
    value {
      type: DT_INT32
    }
  }
}
node {
  name: "deep_logits/concat/axis"
  op: "Const"
  device: "/device:GPU:0"
  attr {
    key: "dtype"
    value {
      type: DT_INT32
    }
  }
  attr {
    key: "value"
    value {
      tensor {
        dtype: DT_INT32
        tensor_shape {
        }
        int_val: 1
      }
    }
  }
}
node {
  name: "deep_logits/concat"
  op: "ConcatV2"
  input: "deep_logits/look_up_embedding/concat"
  input: "deep_logits/get_onehot/concat"
  input: "deep_logits/concat/axis"
  device: "/device:GPU:0"
  attr {
    key: "N"
    value {
      i: 2
    }
  }
  attr {
    key: "T"
    value {
      type: DT_FLOAT
    }
  }
  attr {
    key: "Tidx"
    value {
      type: DT_INT32
    }
  }
}
node {
  name: "deep_model/dnn_hidden_1/dense/kernel/Initializer/random_uniform/shape"
  op: "Const"
  attr {
    key: "_class"
    value {
      list {
        s: "loc:@deep_model/dnn_hidden_1/dense/kernel"
      }
    }
  }
  attr {
    key: "dtype"
    value {
      type: DT_INT32
    }
  }
  attr {
    key: "value"
    value {
      tensor {
        dtype: DT_INT32
        tensor_shape {
          dim {
            size: 2
          }
        }
        tensor_content: "\037\001\000\000\000\004\000\000"
      }
    }
  }
}
node {
  name: "deep_model/dnn_hidden_1/dense/kernel/Initializer/random_uniform/min"
  op: "Const"
  attr {
    key: "_class"
    value {
      list {
        s: "loc:@deep_model/dnn_hidden_1/dense/kernel"
      }
    }
  }
  attr {
    key: "dtype"
    value {
      type: DT_FLOAT
    }
  }
  attr {
    key: "value"
    value {
      tensor {
        dtype: DT_FLOAT
        tensor_shape {
        }
        float_val: -0.0676510110497
      }
    }
  }
}
node {
  name: "deep_model/dnn_hidden_1/dense/kernel/Initializer/random_uniform/max"
  op: "Const"
  attr {
    key: "_class"
    value {
      list {
        s: "loc:@deep_model/dnn_hidden_1/dense/kernel"
      }
    }
  }
  attr {
    key: "dtype"
    value {
      type: DT_FLOAT
    }
  }
  attr {
    key: "value"
    value {
      tensor {
        dtype: DT_FLOAT
        tensor_shape {
        }
        float_val: 0.0676510110497
      }
    }
  }
}
node {
  name: "deep_model/dnn_hidden_1/dense/kernel/Initializer/random_uniform/RandomUniform"
  op: "RandomUniform"
  input: "deep_model/dnn_hidden_1/dense/kernel/Initializer/random_uniform/shape"
  attr {
    key: "T"
    value {
      type: DT_INT32
    }
  }
  attr {
    key: "_class"
    value {
      list {
        s: "loc:@deep_model/dnn_hidden_1/dense/kernel"
      }
    }
  }
  attr {
    key: "dtype"
    value {
      type: DT_FLOAT
    }
  }
  attr {
    key: "seed"
    value {
      i: 0
    }
  }
  attr {
    key: "seed2"
    value {
      i: 0
    }
  }
}
node {
  name: "deep_model/dnn_hidden_1/dense/kernel/Initializer/random_uniform/sub"
  op: "Sub"
  input: "deep_model/dnn_hidden_1/dense/kernel/Initializer/random_uniform/max"
  input: "deep_model/dnn_hidden_1/dense/kernel/Initializer/random_uniform/min"
  attr {
    key: "T"
    value {
      type: DT_FLOAT
    }
  }
  attr {
    key: "_class"
    value {
      list {
        s: "loc:@deep_model/dnn_hidden_1/dense/kernel"
      }
    }
  }
}
node {
  name: "deep_model/dnn_hidden_1/dense/kernel/Initializer/random_uniform/mul"
  op: "Mul"
  input: "deep_model/dnn_hidden_1/dense/kernel/Initializer/random_uniform/RandomUniform"
  input: "deep_model/dnn_hidden_1/dense/kernel/Initializer/random_uniform/sub"
  attr {
    key: "T"
    value {
      type: DT_FLOAT
    }
  }
  attr {
    key: "_class"
    value {
      list {
        s: "loc:@deep_model/dnn_hidden_1/dense/kernel"
      }
    }
  }
}
node {
  name: "deep_model/dnn_hidden_1/dense/kernel/Initializer/random_uniform"
  op: "Add"
  input: "deep_model/dnn_hidden_1/dense/kernel/Initializer/random_uniform/mul"
  input: "deep_model/dnn_hidden_1/dense/kernel/Initializer/random_uniform/min"
  attr {
    key: "T"
    value {
      type: DT_FLOAT
    }
  }
  attr {
    key: "_class"
    value {
      list {
        s: "loc:@deep_model/dnn_hidden_1/dense/kernel"
      }
    }
  }
}
node {
  name: "deep_model/dnn_hidden_1/dense/kernel"
  op: "VariableV2"
  device: "/device:GPU:0"
  attr {
    key: "_class"
    value {
      list {
        s: "loc:@deep_model/dnn_hidden_1/dense/kernel"
      }
    }
  }
  attr {
    key: "container"
    value {
      s: ""
    }
  }
  attr {
    key: "dtype"
    value {
      type: DT_FLOAT
    }
  }
  attr {
    key: "shape"
    value {
      shape {
        dim {
          size: 287
        }
        dim {
          size: 1024
        }
      }
    }
  }
  attr {
    key: "shared_name"
    value {
      s: ""
    }
  }
}
node {
  name: "deep_model/dnn_hidden_1/dense/kernel/Assign"
  op: "Assign"
  input: "deep_model/dnn_hidden_1/dense/kernel"
  input: "deep_model/dnn_hidden_1/dense/kernel/Initializer/random_uniform"
  device: "/device:GPU:0"
  attr {
    key: "T"
    value {
      type: DT_FLOAT
    }
  }
  attr {
    key: "_class"
    value {
      list {
        s: "loc:@deep_model/dnn_hidden_1/dense/kernel"
      }
    }
  }
  attr {
    key: "use_locking"
    value {
      b: true
    }
  }
  attr {
    key: "validate_shape"
    value {
      b: true
    }
  }
}
node {
  name: "deep_model/dnn_hidden_1/dense/kernel/read"
  op: "Identity"
  input: "deep_model/dnn_hidden_1/dense/kernel"
  device: "/device:GPU:0"
  attr {
    key: "T"
    value {
      type: DT_FLOAT
    }
  }
  attr {
    key: "_class"
    value {
      list {
        s: "loc:@deep_model/dnn_hidden_1/dense/kernel"
      }
    }
  }
}
node {
  name: "deep_model/dnn_hidden_1/dense/bias/Initializer/zeros"
  op: "Const"
  attr {
    key: "_class"
    value {
      list {
        s: "loc:@deep_model/dnn_hidden_1/dense/bias"
      }
    }
  }
  attr {
    key: "dtype"
    value {
      type: DT_FLOAT
    }
  }
  attr {
    key: "value"
    value {
      tensor {
        dtype: DT_FLOAT
        tensor_shape {
          dim {
            size: 1024
          }
        }
        float_val: 0.0
      }
    }
  }
}
node {
  name: "deep_model/dnn_hidden_1/dense/bias"
  op: "VariableV2"
  device: "/device:GPU:0"
  attr {
    key: "_class"
    value {
      list {
        s: "loc:@deep_model/dnn_hidden_1/dense/bias"
      }
    }
  }
  attr {
    key: "container"
    value {
      s: ""
    }
  }
  attr {
    key: "dtype"
    value {
      type: DT_FLOAT
    }
  }
  attr {
    key: "shape"
    value {
      shape {
        dim {
          size: 1024
        }
      }
    }
  }
  attr {
    key: "shared_name"
    value {
      s: ""
    }
  }
}
node {
  name: "deep_model/dnn_hidden_1/dense/bias/Assign"
  op: "Assign"
  input: "deep_model/dnn_hidden_1/dense/bias"
  input: "deep_model/dnn_hidden_1/dense/bias/Initializer/zeros"
  device: "/device:GPU:0"
  attr {
    key: "T"
    value {
      type: DT_FLOAT
    }
  }
  attr {
    key: "_class"
    value {
      list {
        s: "loc:@deep_model/dnn_hidden_1/dense/bias"
      }
    }
  }
  attr {
    key: "use_locking"
    value {
      b: true
    }
  }
  attr {
    key: "validate_shape"
    value {
      b: true
    }
  }
}
node {
  name: "deep_model/dnn_hidden_1/dense/bias/read"
  op: "Identity"
  input: "deep_model/dnn_hidden_1/dense/bias"
  device: "/device:GPU:0"
  attr {
    key: "T"
    value {
      type: DT_FLOAT
    }
  }
  attr {
    key: "_class"
    value {
      list {
        s: "loc:@deep_model/dnn_hidden_1/dense/bias"
      }
    }
  }
}
node {
  name: "deep_logits/deep_model/dnn_hidden_1/dense/MatMul"
  op: "MatMul"
  input: "deep_logits/concat"
  input: "deep_model/dnn_hidden_1/dense/kernel/read"
  device: "/device:GPU:0"
  attr {
    key: "T"
    value {
      type: DT_FLOAT
    }
  }
  attr {
    key: "transpose_a"
    value {
      b: false
    }
  }
  attr {
    key: "transpose_b"
    value {
      b: false
    }
  }
}
node {
  name: "deep_logits/deep_model/dnn_hidden_1/dense/BiasAdd"
  op: "BiasAdd"
  input: "deep_logits/deep_model/dnn_hidden_1/dense/MatMul"
  input: "deep_model/dnn_hidden_1/dense/bias/read"
  device: "/device:GPU:0"
  attr {
    key: "T"
    value {
      type: DT_FLOAT
    }
  }
  attr {
    key: "data_format"
    value {
      s: "NHWC"
    }
  }
}
node {
  name: "deep_logits/deep_model/dnn_hidden_1/dense/Relu"
  op: "Relu"
  input: "deep_logits/deep_model/dnn_hidden_1/dense/BiasAdd"
  device: "/device:GPU:0"
  attr {
    key: "T"
    value {
      type: DT_FLOAT
    }
  }
}
node {
  name: "deep_logits/deep_model/dnn_hidden_1/dropout/dropout/keep_prob"
  op: "Const"
  device: "/device:GPU:0"
  attr {
    key: "dtype"
    value {
      type: DT_FLOAT
    }
  }
  attr {
    key: "value"
    value {
      tensor {
        dtype: DT_FLOAT
        tensor_shape {
        }
        float_val: 0.10000000149
      }
    }
  }
}
node {
  name: "deep_logits/deep_model/dnn_hidden_1/dropout/dropout/Shape"
  op: "Shape"
  input: "deep_logits/deep_model/dnn_hidden_1/dense/Relu"
  device: "/device:GPU:0"
  attr {
    key: "T"
    value {
      type: DT_FLOAT
    }
  }
  attr {
    key: "out_type"
    value {
      type: DT_INT32
    }
  }
}
node {
  name: "deep_logits/deep_model/dnn_hidden_1/dropout/dropout/random_uniform/min"
  op: "Const"
  device: "/device:GPU:0"
  attr {
    key: "dtype"
    value {
      type: DT_FLOAT
    }
  }
  attr {
    key: "value"
    value {
      tensor {
        dtype: DT_FLOAT
        tensor_shape {
        }
        float_val: 0.0
      }
    }
  }
}
node {
  name: "deep_logits/deep_model/dnn_hidden_1/dropout/dropout/random_uniform/max"
  op: "Const"
  device: "/device:GPU:0"
  attr {
    key: "dtype"
    value {
      type: DT_FLOAT
    }
  }
  attr {
    key: "value"
    value {
      tensor {
        dtype: DT_FLOAT
        tensor_shape {
        }
        float_val: 1.0
      }
    }
  }
}
node {
  name: "deep_logits/deep_model/dnn_hidden_1/dropout/dropout/random_uniform/RandomUniform"
  op: "RandomUniform"
  input: "deep_logits/deep_model/dnn_hidden_1/dropout/dropout/Shape"
  device: "/device:GPU:0"
  attr {
    key: "T"
    value {
      type: DT_INT32
    }
  }
  attr {
    key: "dtype"
    value {
      type: DT_FLOAT
    }
  }
  attr {
    key: "seed"
    value {
      i: 0
    }
  }
  attr {
    key: "seed2"
    value {
      i: 0
    }
  }
}
node {
  name: "deep_logits/deep_model/dnn_hidden_1/dropout/dropout/random_uniform/sub"
  op: "Sub"
  input: "deep_logits/deep_model/dnn_hidden_1/dropout/dropout/random_uniform/max"
  input: "deep_logits/deep_model/dnn_hidden_1/dropout/dropout/random_uniform/min"
  device: "/device:GPU:0"
  attr {
    key: "T"
    value {
      type: DT_FLOAT
    }
  }
}
node {
  name: "deep_logits/deep_model/dnn_hidden_1/dropout/dropout/random_uniform/mul"
  op: "Mul"
  input: "deep_logits/deep_model/dnn_hidden_1/dropout/dropout/random_uniform/RandomUniform"
  input: "deep_logits/deep_model/dnn_hidden_1/dropout/dropout/random_uniform/sub"
  device: "/device:GPU:0"
  attr {
    key: "T"
    value {
      type: DT_FLOAT
    }
  }
}
node {
  name: "deep_logits/deep_model/dnn_hidden_1/dropout/dropout/random_uniform"
  op: "Add"
  input: "deep_logits/deep_model/dnn_hidden_1/dropout/dropout/random_uniform/mul"
  input: "deep_logits/deep_model/dnn_hidden_1/dropout/dropout/random_uniform/min"
  device: "/device:GPU:0"
  attr {
    key: "T"
    value {
      type: DT_FLOAT
    }
  }
}
node {
  name: "deep_logits/deep_model/dnn_hidden_1/dropout/dropout/add"
  op: "Add"
  input: "deep_logits/deep_model/dnn_hidden_1/dropout/dropout/keep_prob"
  input: "deep_logits/deep_model/dnn_hidden_1/dropout/dropout/random_uniform"
  device: "/device:GPU:0"
  attr {
    key: "T"
    value {
      type: DT_FLOAT
    }
  }
}
node {
  name: "deep_logits/deep_model/dnn_hidden_1/dropout/dropout/Floor"
  op: "Floor"
  input: "deep_logits/deep_model/dnn_hidden_1/dropout/dropout/add"
  device: "/device:GPU:0"
  attr {
    key: "T"
    value {
      type: DT_FLOAT
    }
  }
}
node {
  name: "deep_logits/deep_model/dnn_hidden_1/dropout/dropout/div"
  op: "RealDiv"
  input: "deep_logits/deep_model/dnn_hidden_1/dense/Relu"
  input: "deep_logits/deep_model/dnn_hidden_1/dropout/dropout/keep_prob"
  device: "/device:GPU:0"
  attr {
    key: "T"
    value {
      type: DT_FLOAT
    }
  }
}
node {
  name: "deep_logits/deep_model/dnn_hidden_1/dropout/dropout/mul"
  op: "Mul"
  input: "deep_logits/deep_model/dnn_hidden_1/dropout/dropout/div"
  input: "deep_logits/deep_model/dnn_hidden_1/dropout/dropout/Floor"
  device: "/device:GPU:0"
  attr {
    key: "T"
    value {
      type: DT_FLOAT
    }
  }
}
node {
  name: "deep_logits/deep_model/dnn_hidden_1/zero_fraction/zero"
  op: "Const"
  device: "/device:GPU:0"
  attr {
    key: "dtype"
    value {
      type: DT_FLOAT
    }
  }
  attr {
    key: "value"
    value {
      tensor {
        dtype: DT_FLOAT
        tensor_shape {
        }
        float_val: 0.0
      }
    }
  }
}
node {
  name: "deep_logits/deep_model/dnn_hidden_1/zero_fraction/Equal"
  op: "Equal"
  input: "deep_logits/deep_model/dnn_hidden_1/dropout/dropout/mul"
  input: "deep_logits/deep_model/dnn_hidden_1/zero_fraction/zero"
  device: "/device:GPU:0"
  attr {
    key: "T"
    value {
      type: DT_FLOAT
    }
  }
}
node {
  name: "deep_logits/deep_model/dnn_hidden_1/zero_fraction/Cast"
  op: "Cast"
  input: "deep_logits/deep_model/dnn_hidden_1/zero_fraction/Equal"
  device: "/device:GPU:0"
  attr {
    key: "DstT"
    value {
      type: DT_FLOAT
    }
  }
  attr {
    key: "SrcT"
    value {
      type: DT_BOOL
    }
  }
}
node {
  name: "deep_logits/deep_model/dnn_hidden_1/zero_fraction/Const"
  op: "Const"
  device: "/device:GPU:0"
  attr {
    key: "dtype"
    value {
      type: DT_INT32
    }
  }
  attr {
    key: "value"
    value {
      tensor {
        dtype: DT_INT32
        tensor_shape {
          dim {
            size: 2
          }
        }
        tensor_content: "\000\000\000\000\001\000\000\000"
      }
    }
  }
}
node {
  name: "deep_logits/deep_model/dnn_hidden_1/zero_fraction/Mean"
  op: "Mean"
  input: "deep_logits/deep_model/dnn_hidden_1/zero_fraction/Cast"
  input: "deep_logits/deep_model/dnn_hidden_1/zero_fraction/Const"
  device: "/device:GPU:0"
  attr {
    key: "T"
    value {
      type: DT_FLOAT
    }
  }
  attr {
    key: "Tidx"
    value {
      type: DT_INT32
    }
  }
  attr {
    key: "keep_dims"
    value {
      b: false
    }
  }
}
node {
  name: "deep_logits/deep_model/dnn_hidden_1/deep_model/dnn_hidden_1/fraction_of_zero_values/tags"
  op: "Const"
  device: "/device:GPU:0"
  attr {
    key: "dtype"
    value {
      type: DT_STRING
    }
  }
  attr {
    key: "value"
    value {
      tensor {
        dtype: DT_STRING
        tensor_shape {
        }
        string_val: "deep_logits/deep_model/dnn_hidden_1/deep_model/dnn_hidden_1/fraction_of_zero_values"
      }
    }
  }
}
node {
  name: "deep_logits/deep_model/dnn_hidden_1/deep_model/dnn_hidden_1/fraction_of_zero_values"
  op: "ScalarSummary"
  input: "deep_logits/deep_model/dnn_hidden_1/deep_model/dnn_hidden_1/fraction_of_zero_values/tags"
  input: "deep_logits/deep_model/dnn_hidden_1/zero_fraction/Mean"
  device: "/device:GPU:0"
  attr {
    key: "T"
    value {
      type: DT_FLOAT
    }
  }
}
node {
  name: "deep_logits/deep_model/dnn_hidden_1/deep_model/dnn_hidden_1/activation/tag"
  op: "Const"
  device: "/device:GPU:0"
  attr {
    key: "dtype"
    value {
      type: DT_STRING
    }
  }
  attr {
    key: "value"
    value {
      tensor {
        dtype: DT_STRING
        tensor_shape {
        }
        string_val: "deep_logits/deep_model/dnn_hidden_1/deep_model/dnn_hidden_1/activation"
      }
    }
  }
}
node {
  name: "deep_logits/deep_model/dnn_hidden_1/deep_model/dnn_hidden_1/activation"
  op: "HistogramSummary"
  input: "deep_logits/deep_model/dnn_hidden_1/deep_model/dnn_hidden_1/activation/tag"
  input: "deep_logits/deep_model/dnn_hidden_1/dropout/dropout/mul"
  device: "/device:GPU:0"
  attr {
    key: "T"
    value {
      type: DT_FLOAT
    }
  }
}
node {
  name: "deep_model/dnn_hidden_2/dense/kernel/Initializer/random_uniform/shape"
  op: "Const"
  attr {
    key: "_class"
    value {
      list {
        s: "loc:@deep_model/dnn_hidden_2/dense/kernel"
      }
    }
  }
  attr {
    key: "dtype"
    value {
      type: DT_INT32
    }
  }
  attr {
    key: "value"
    value {
      tensor {
        dtype: DT_INT32
        tensor_shape {
          dim {
            size: 2
          }
        }
        tensor_content: "\000\004\000\000\000\002\000\000"
      }
    }
  }
}
node {
  name: "deep_model/dnn_hidden_2/dense/kernel/Initializer/random_uniform/min"
  op: "Const"
  attr {
    key: "_class"
    value {
      list {
        s: "loc:@deep_model/dnn_hidden_2/dense/kernel"
      }
    }
  }
  attr {
    key: "dtype"
    value {
      type: DT_FLOAT
    }
  }
  attr {
    key: "value"
    value {
      tensor {
        dtype: DT_FLOAT
        tensor_shape {
        }
        float_val: -0.0625
      }
    }
  }
}
node {
  name: "deep_model/dnn_hidden_2/dense/kernel/Initializer/random_uniform/max"
  op: "Const"
  attr {
    key: "_class"
    value {
      list {
        s: "loc:@deep_model/dnn_hidden_2/dense/kernel"
      }
    }
  }
  attr {
    key: "dtype"
    value {
      type: DT_FLOAT
    }
  }
  attr {
    key: "value"
    value {
      tensor {
        dtype: DT_FLOAT
        tensor_shape {
        }
        float_val: 0.0625
      }
    }
  }
}
node {
  name: "deep_model/dnn_hidden_2/dense/kernel/Initializer/random_uniform/RandomUniform"
  op: "RandomUniform"
  input: "deep_model/dnn_hidden_2/dense/kernel/Initializer/random_uniform/shape"
  attr {
    key: "T"
    value {
      type: DT_INT32
    }
  }
  attr {
    key: "_class"
    value {
      list {
        s: "loc:@deep_model/dnn_hidden_2/dense/kernel"
      }
    }
  }
  attr {
    key: "dtype"
    value {
      type: DT_FLOAT
    }
  }
  attr {
    key: "seed"
    value {
      i: 0
    }
  }
  attr {
    key: "seed2"
    value {
      i: 0
    }
  }
}
node {
  name: "deep_model/dnn_hidden_2/dense/kernel/Initializer/random_uniform/sub"
  op: "Sub"
  input: "deep_model/dnn_hidden_2/dense/kernel/Initializer/random_uniform/max"
  input: "deep_model/dnn_hidden_2/dense/kernel/Initializer/random_uniform/min"
  attr {
    key: "T"
    value {
      type: DT_FLOAT
    }
  }
  attr {
    key: "_class"
    value {
      list {
        s: "loc:@deep_model/dnn_hidden_2/dense/kernel"
      }
    }
  }
}
node {
  name: "deep_model/dnn_hidden_2/dense/kernel/Initializer/random_uniform/mul"
  op: "Mul"
  input: "deep_model/dnn_hidden_2/dense/kernel/Initializer/random_uniform/RandomUniform"
  input: "deep_model/dnn_hidden_2/dense/kernel/Initializer/random_uniform/sub"
  attr {
    key: "T"
    value {
      type: DT_FLOAT
    }
  }
  attr {
    key: "_class"
    value {
      list {
        s: "loc:@deep_model/dnn_hidden_2/dense/kernel"
      }
    }
  }
}
node {
  name: "deep_model/dnn_hidden_2/dense/kernel/Initializer/random_uniform"
  op: "Add"
  input: "deep_model/dnn_hidden_2/dense/kernel/Initializer/random_uniform/mul"
  input: "deep_model/dnn_hidden_2/dense/kernel/Initializer/random_uniform/min"
  attr {
    key: "T"
    value {
      type: DT_FLOAT
    }
  }
  attr {
    key: "_class"
    value {
      list {
        s: "loc:@deep_model/dnn_hidden_2/dense/kernel"
      }
    }
  }
}
node {
  name: "deep_model/dnn_hidden_2/dense/kernel"
  op: "VariableV2"
  device: "/device:GPU:0"
  attr {
    key: "_class"
    value {
      list {
        s: "loc:@deep_model/dnn_hidden_2/dense/kernel"
      }
    }
  }
  attr {
    key: "container"
    value {
      s: ""
    }
  }
  attr {
    key: "dtype"
    value {
      type: DT_FLOAT
    }
  }
  attr {
    key: "shape"
    value {
      shape {
        dim {
          size: 1024
        }
        dim {
          size: 512
        }
      }
    }
  }
  attr {
    key: "shared_name"
    value {
      s: ""
    }
  }
}
node {
  name: "deep_model/dnn_hidden_2/dense/kernel/Assign"
  op: "Assign"
  input: "deep_model/dnn_hidden_2/dense/kernel"
  input: "deep_model/dnn_hidden_2/dense/kernel/Initializer/random_uniform"
  device: "/device:GPU:0"
  attr {
    key: "T"
    value {
      type: DT_FLOAT
    }
  }
  attr {
    key: "_class"
    value {
      list {
        s: "loc:@deep_model/dnn_hidden_2/dense/kernel"
      }
    }
  }
  attr {
    key: "use_locking"
    value {
      b: true
    }
  }
  attr {
    key: "validate_shape"
    value {
      b: true
    }
  }
}
node {
  name: "deep_model/dnn_hidden_2/dense/kernel/read"
  op: "Identity"
  input: "deep_model/dnn_hidden_2/dense/kernel"
  device: "/device:GPU:0"
  attr {
    key: "T"
    value {
      type: DT_FLOAT
    }
  }
  attr {
    key: "_class"
    value {
      list {
        s: "loc:@deep_model/dnn_hidden_2/dense/kernel"
      }
    }
  }
}
node {
  name: "deep_model/dnn_hidden_2/dense/bias/Initializer/zeros"
  op: "Const"
  attr {
    key: "_class"
    value {
      list {
        s: "loc:@deep_model/dnn_hidden_2/dense/bias"
      }
    }
  }
  attr {
    key: "dtype"
    value {
      type: DT_FLOAT
    }
  }
  attr {
    key: "value"
    value {
      tensor {
        dtype: DT_FLOAT
        tensor_shape {
          dim {
            size: 512
          }
        }
        float_val: 0.0
      }
    }
  }
}
node {
  name: "deep_model/dnn_hidden_2/dense/bias"
  op: "VariableV2"
  device: "/device:GPU:0"
  attr {
    key: "_class"
    value {
      list {
        s: "loc:@deep_model/dnn_hidden_2/dense/bias"
      }
    }
  }
  attr {
    key: "container"
    value {
      s: ""
    }
  }
  attr {
    key: "dtype"
    value {
      type: DT_FLOAT
    }
  }
  attr {
    key: "shape"
    value {
      shape {
        dim {
          size: 512
        }
      }
    }
  }
  attr {
    key: "shared_name"
    value {
      s: ""
    }
  }
}
node {
  name: "deep_model/dnn_hidden_2/dense/bias/Assign"
  op: "Assign"
  input: "deep_model/dnn_hidden_2/dense/bias"
  input: "deep_model/dnn_hidden_2/dense/bias/Initializer/zeros"
  device: "/device:GPU:0"
  attr {
    key: "T"
    value {
      type: DT_FLOAT
    }
  }
  attr {
    key: "_class"
    value {
      list {
        s: "loc:@deep_model/dnn_hidden_2/dense/bias"
      }
    }
  }
  attr {
    key: "use_locking"
    value {
      b: true
    }
  }
  attr {
    key: "validate_shape"
    value {
      b: true
    }
  }
}
node {
  name: "deep_model/dnn_hidden_2/dense/bias/read"
  op: "Identity"
  input: "deep_model/dnn_hidden_2/dense/bias"
  device: "/device:GPU:0"
  attr {
    key: "T"
    value {
      type: DT_FLOAT
    }
  }
  attr {
    key: "_class"
    value {
      list {
        s: "loc:@deep_model/dnn_hidden_2/dense/bias"
      }
    }
  }
}
node {
  name: "deep_logits/deep_model/dnn_hidden_2/dense/MatMul"
  op: "MatMul"
  input: "deep_logits/deep_model/dnn_hidden_1/dropout/dropout/mul"
  input: "deep_model/dnn_hidden_2/dense/kernel/read"
  device: "/device:GPU:0"
  attr {
    key: "T"
    value {
      type: DT_FLOAT
    }
  }
  attr {
    key: "transpose_a"
    value {
      b: false
    }
  }
  attr {
    key: "transpose_b"
    value {
      b: false
    }
  }
}
node {
  name: "deep_logits/deep_model/dnn_hidden_2/dense/BiasAdd"
  op: "BiasAdd"
  input: "deep_logits/deep_model/dnn_hidden_2/dense/MatMul"
  input: "deep_model/dnn_hidden_2/dense/bias/read"
  device: "/device:GPU:0"
  attr {
    key: "T"
    value {
      type: DT_FLOAT
    }
  }
  attr {
    key: "data_format"
    value {
      s: "NHWC"
    }
  }
}
node {
  name: "deep_logits/deep_model/dnn_hidden_2/dense/Relu"
  op: "Relu"
  input: "deep_logits/deep_model/dnn_hidden_2/dense/BiasAdd"
  device: "/device:GPU:0"
  attr {
    key: "T"
    value {
      type: DT_FLOAT
    }
  }
}
node {
  name: "deep_logits/deep_model/dnn_hidden_2/dropout/dropout/keep_prob"
  op: "Const"
  device: "/device:GPU:0"
  attr {
    key: "dtype"
    value {
      type: DT_FLOAT
    }
  }
  attr {
    key: "value"
    value {
      tensor {
        dtype: DT_FLOAT
        tensor_shape {
        }
        float_val: 0.10000000149
      }
    }
  }
}
node {
  name: "deep_logits/deep_model/dnn_hidden_2/dropout/dropout/Shape"
  op: "Shape"
  input: "deep_logits/deep_model/dnn_hidden_2/dense/Relu"
  device: "/device:GPU:0"
  attr {
    key: "T"
    value {
      type: DT_FLOAT
    }
  }
  attr {
    key: "out_type"
    value {
      type: DT_INT32
    }
  }
}
node {
  name: "deep_logits/deep_model/dnn_hidden_2/dropout/dropout/random_uniform/min"
  op: "Const"
  device: "/device:GPU:0"
  attr {
    key: "dtype"
    value {
      type: DT_FLOAT
    }
  }
  attr {
    key: "value"
    value {
      tensor {
        dtype: DT_FLOAT
        tensor_shape {
        }
        float_val: 0.0
      }
    }
  }
}
node {
  name: "deep_logits/deep_model/dnn_hidden_2/dropout/dropout/random_uniform/max"
  op: "Const"
  device: "/device:GPU:0"
  attr {
    key: "dtype"
    value {
      type: DT_FLOAT
    }
  }
  attr {
    key: "value"
    value {
      tensor {
        dtype: DT_FLOAT
        tensor_shape {
        }
        float_val: 1.0
      }
    }
  }
}
node {
  name: "deep_logits/deep_model/dnn_hidden_2/dropout/dropout/random_uniform/RandomUniform"
  op: "RandomUniform"
  input: "deep_logits/deep_model/dnn_hidden_2/dropout/dropout/Shape"
  device: "/device:GPU:0"
  attr {
    key: "T"
    value {
      type: DT_INT32
    }
  }
  attr {
    key: "dtype"
    value {
      type: DT_FLOAT
    }
  }
  attr {
    key: "seed"
    value {
      i: 0
    }
  }
  attr {
    key: "seed2"
    value {
      i: 0
    }
  }
}
node {
  name: "deep_logits/deep_model/dnn_hidden_2/dropout/dropout/random_uniform/sub"
  op: "Sub"
  input: "deep_logits/deep_model/dnn_hidden_2/dropout/dropout/random_uniform/max"
  input: "deep_logits/deep_model/dnn_hidden_2/dropout/dropout/random_uniform/min"
  device: "/device:GPU:0"
  attr {
    key: "T"
    value {
      type: DT_FLOAT
    }
  }
}
node {
  name: "deep_logits/deep_model/dnn_hidden_2/dropout/dropout/random_uniform/mul"
  op: "Mul"
  input: "deep_logits/deep_model/dnn_hidden_2/dropout/dropout/random_uniform/RandomUniform"
  input: "deep_logits/deep_model/dnn_hidden_2/dropout/dropout/random_uniform/sub"
  device: "/device:GPU:0"
  attr {
    key: "T"
    value {
      type: DT_FLOAT
    }
  }
}
node {
  name: "deep_logits/deep_model/dnn_hidden_2/dropout/dropout/random_uniform"
  op: "Add"
  input: "deep_logits/deep_model/dnn_hidden_2/dropout/dropout/random_uniform/mul"
  input: "deep_logits/deep_model/dnn_hidden_2/dropout/dropout/random_uniform/min"
  device: "/device:GPU:0"
  attr {
    key: "T"
    value {
      type: DT_FLOAT
    }
  }
}
node {
  name: "deep_logits/deep_model/dnn_hidden_2/dropout/dropout/add"
  op: "Add"
  input: "deep_logits/deep_model/dnn_hidden_2/dropout/dropout/keep_prob"
  input: "deep_logits/deep_model/dnn_hidden_2/dropout/dropout/random_uniform"
  device: "/device:GPU:0"
  attr {
    key: "T"
    value {
      type: DT_FLOAT
    }
  }
}
node {
  name: "deep_logits/deep_model/dnn_hidden_2/dropout/dropout/Floor"
  op: "Floor"
  input: "deep_logits/deep_model/dnn_hidden_2/dropout/dropout/add"
  device: "/device:GPU:0"
  attr {
    key: "T"
    value {
      type: DT_FLOAT
    }
  }
}
node {
  name: "deep_logits/deep_model/dnn_hidden_2/dropout/dropout/div"
  op: "RealDiv"
  input: "deep_logits/deep_model/dnn_hidden_2/dense/Relu"
  input: "deep_logits/deep_model/dnn_hidden_2/dropout/dropout/keep_prob"
  device: "/device:GPU:0"
  attr {
    key: "T"
    value {
      type: DT_FLOAT
    }
  }
}
node {
  name: "deep_logits/deep_model/dnn_hidden_2/dropout/dropout/mul"
  op: "Mul"
  input: "deep_logits/deep_model/dnn_hidden_2/dropout/dropout/div"
  input: "deep_logits/deep_model/dnn_hidden_2/dropout/dropout/Floor"
  device: "/device:GPU:0"
  attr {
    key: "T"
    value {
      type: DT_FLOAT
    }
  }
}
node {
  name: "deep_logits/deep_model/dnn_hidden_2/zero_fraction/zero"
  op: "Const"
  device: "/device:GPU:0"
  attr {
    key: "dtype"
    value {
      type: DT_FLOAT
    }
  }
  attr {
    key: "value"
    value {
      tensor {
        dtype: DT_FLOAT
        tensor_shape {
        }
        float_val: 0.0
      }
    }
  }
}
node {
  name: "deep_logits/deep_model/dnn_hidden_2/zero_fraction/Equal"
  op: "Equal"
  input: "deep_logits/deep_model/dnn_hidden_2/dropout/dropout/mul"
  input: "deep_logits/deep_model/dnn_hidden_2/zero_fraction/zero"
  device: "/device:GPU:0"
  attr {
    key: "T"
    value {
      type: DT_FLOAT
    }
  }
}
node {
  name: "deep_logits/deep_model/dnn_hidden_2/zero_fraction/Cast"
  op: "Cast"
  input: "deep_logits/deep_model/dnn_hidden_2/zero_fraction/Equal"
  device: "/device:GPU:0"
  attr {
    key: "DstT"
    value {
      type: DT_FLOAT
    }
  }
  attr {
    key: "SrcT"
    value {
      type: DT_BOOL
    }
  }
}
node {
  name: "deep_logits/deep_model/dnn_hidden_2/zero_fraction/Const"
  op: "Const"
  device: "/device:GPU:0"
  attr {
    key: "dtype"
    value {
      type: DT_INT32
    }
  }
  attr {
    key: "value"
    value {
      tensor {
        dtype: DT_INT32
        tensor_shape {
          dim {
            size: 2
          }
        }
        tensor_content: "\000\000\000\000\001\000\000\000"
      }
    }
  }
}
node {
  name: "deep_logits/deep_model/dnn_hidden_2/zero_fraction/Mean"
  op: "Mean"
  input: "deep_logits/deep_model/dnn_hidden_2/zero_fraction/Cast"
  input: "deep_logits/deep_model/dnn_hidden_2/zero_fraction/Const"
  device: "/device:GPU:0"
  attr {
    key: "T"
    value {
      type: DT_FLOAT
    }
  }
  attr {
    key: "Tidx"
    value {
      type: DT_INT32
    }
  }
  attr {
    key: "keep_dims"
    value {
      b: false
    }
  }
}
node {
  name: "deep_logits/deep_model/dnn_hidden_2/deep_model/dnn_hidden_2/fraction_of_zero_values/tags"
  op: "Const"
  device: "/device:GPU:0"
  attr {
    key: "dtype"
    value {
      type: DT_STRING
    }
  }
  attr {
    key: "value"
    value {
      tensor {
        dtype: DT_STRING
        tensor_shape {
        }
        string_val: "deep_logits/deep_model/dnn_hidden_2/deep_model/dnn_hidden_2/fraction_of_zero_values"
      }
    }
  }
}
node {
  name: "deep_logits/deep_model/dnn_hidden_2/deep_model/dnn_hidden_2/fraction_of_zero_values"
  op: "ScalarSummary"
  input: "deep_logits/deep_model/dnn_hidden_2/deep_model/dnn_hidden_2/fraction_of_zero_values/tags"
  input: "deep_logits/deep_model/dnn_hidden_2/zero_fraction/Mean"
  device: "/device:GPU:0"
  attr {
    key: "T"
    value {
      type: DT_FLOAT
    }
  }
}
node {
  name: "deep_logits/deep_model/dnn_hidden_2/deep_model/dnn_hidden_2/activation/tag"
  op: "Const"
  device: "/device:GPU:0"
  attr {
    key: "dtype"
    value {
      type: DT_STRING
    }
  }
  attr {
    key: "value"
    value {
      tensor {
        dtype: DT_STRING
        tensor_shape {
        }
        string_val: "deep_logits/deep_model/dnn_hidden_2/deep_model/dnn_hidden_2/activation"
      }
    }
  }
}
node {
  name: "deep_logits/deep_model/dnn_hidden_2/deep_model/dnn_hidden_2/activation"
  op: "HistogramSummary"
  input: "deep_logits/deep_model/dnn_hidden_2/deep_model/dnn_hidden_2/activation/tag"
  input: "deep_logits/deep_model/dnn_hidden_2/dropout/dropout/mul"
  device: "/device:GPU:0"
  attr {
    key: "T"
    value {
      type: DT_FLOAT
    }
  }
}
node {
  name: "deep_model/dnn_hidden_3/dense/kernel/Initializer/random_uniform/shape"
  op: "Const"
  attr {
    key: "_class"
    value {
      list {
        s: "loc:@deep_model/dnn_hidden_3/dense/kernel"
      }
    }
  }
  attr {
    key: "dtype"
    value {
      type: DT_INT32
    }
  }
  attr {
    key: "value"
    value {
      tensor {
        dtype: DT_INT32
        tensor_shape {
          dim {
            size: 2
          }
        }
        tensor_content: "\000\002\000\000\000\001\000\000"
      }
    }
  }
}
node {
  name: "deep_model/dnn_hidden_3/dense/kernel/Initializer/random_uniform/min"
  op: "Const"
  attr {
    key: "_class"
    value {
      list {
        s: "loc:@deep_model/dnn_hidden_3/dense/kernel"
      }
    }
  }
  attr {
    key: "dtype"
    value {
      type: DT_FLOAT
    }
  }
  attr {
    key: "value"
    value {
      tensor {
        dtype: DT_FLOAT
        tensor_shape {
        }
        float_val: -0.0883883461356
      }
    }
  }
}
node {
  name: "deep_model/dnn_hidden_3/dense/kernel/Initializer/random_uniform/max"
  op: "Const"
  attr {
    key: "_class"
    value {
      list {
        s: "loc:@deep_model/dnn_hidden_3/dense/kernel"
      }
    }
  }
  attr {
    key: "dtype"
    value {
      type: DT_FLOAT
    }
  }
  attr {
    key: "value"
    value {
      tensor {
        dtype: DT_FLOAT
        tensor_shape {
        }
        float_val: 0.0883883461356
      }
    }
  }
}
node {
  name: "deep_model/dnn_hidden_3/dense/kernel/Initializer/random_uniform/RandomUniform"
  op: "RandomUniform"
  input: "deep_model/dnn_hidden_3/dense/kernel/Initializer/random_uniform/shape"
  attr {
    key: "T"
    value {
      type: DT_INT32
    }
  }
  attr {
    key: "_class"
    value {
      list {
        s: "loc:@deep_model/dnn_hidden_3/dense/kernel"
      }
    }
  }
  attr {
    key: "dtype"
    value {
      type: DT_FLOAT
    }
  }
  attr {
    key: "seed"
    value {
      i: 0
    }
  }
  attr {
    key: "seed2"
    value {
      i: 0
    }
  }
}
node {
  name: "deep_model/dnn_hidden_3/dense/kernel/Initializer/random_uniform/sub"
  op: "Sub"
  input: "deep_model/dnn_hidden_3/dense/kernel/Initializer/random_uniform/max"
  input: "deep_model/dnn_hidden_3/dense/kernel/Initializer/random_uniform/min"
  attr {
    key: "T"
    value {
      type: DT_FLOAT
    }
  }
  attr {
    key: "_class"
    value {
      list {
        s: "loc:@deep_model/dnn_hidden_3/dense/kernel"
      }
    }
  }
}
node {
  name: "deep_model/dnn_hidden_3/dense/kernel/Initializer/random_uniform/mul"
  op: "Mul"
  input: "deep_model/dnn_hidden_3/dense/kernel/Initializer/random_uniform/RandomUniform"
  input: "deep_model/dnn_hidden_3/dense/kernel/Initializer/random_uniform/sub"
  attr {
    key: "T"
    value {
      type: DT_FLOAT
    }
  }
  attr {
    key: "_class"
    value {
      list {
        s: "loc:@deep_model/dnn_hidden_3/dense/kernel"
      }
    }
  }
}
node {
  name: "deep_model/dnn_hidden_3/dense/kernel/Initializer/random_uniform"
  op: "Add"
  input: "deep_model/dnn_hidden_3/dense/kernel/Initializer/random_uniform/mul"
  input: "deep_model/dnn_hidden_3/dense/kernel/Initializer/random_uniform/min"
  attr {
    key: "T"
    value {
      type: DT_FLOAT
    }
  }
  attr {
    key: "_class"
    value {
      list {
        s: "loc:@deep_model/dnn_hidden_3/dense/kernel"
      }
    }
  }
}
node {
  name: "deep_model/dnn_hidden_3/dense/kernel"
  op: "VariableV2"
  device: "/device:GPU:0"
  attr {
    key: "_class"
    value {
      list {
        s: "loc:@deep_model/dnn_hidden_3/dense/kernel"
      }
    }
  }
  attr {
    key: "container"
    value {
      s: ""
    }
  }
  attr {
    key: "dtype"
    value {
      type: DT_FLOAT
    }
  }
  attr {
    key: "shape"
    value {
      shape {
        dim {
          size: 512
        }
        dim {
          size: 256
        }
      }
    }
  }
  attr {
    key: "shared_name"
    value {
      s: ""
    }
  }
}
node {
  name: "deep_model/dnn_hidden_3/dense/kernel/Assign"
  op: "Assign"
  input: "deep_model/dnn_hidden_3/dense/kernel"
  input: "deep_model/dnn_hidden_3/dense/kernel/Initializer/random_uniform"
  device: "/device:GPU:0"
  attr {
    key: "T"
    value {
      type: DT_FLOAT
    }
  }
  attr {
    key: "_class"
    value {
      list {
        s: "loc:@deep_model/dnn_hidden_3/dense/kernel"
      }
    }
  }
  attr {
    key: "use_locking"
    value {
      b: true
    }
  }
  attr {
    key: "validate_shape"
    value {
      b: true
    }
  }
}
node {
  name: "deep_model/dnn_hidden_3/dense/kernel/read"
  op: "Identity"
  input: "deep_model/dnn_hidden_3/dense/kernel"
  device: "/device:GPU:0"
  attr {
    key: "T"
    value {
      type: DT_FLOAT
    }
  }
  attr {
    key: "_class"
    value {
      list {
        s: "loc:@deep_model/dnn_hidden_3/dense/kernel"
      }
    }
  }
}
node {
  name: "deep_model/dnn_hidden_3/dense/bias/Initializer/zeros"
  op: "Const"
  attr {
    key: "_class"
    value {
      list {
        s: "loc:@deep_model/dnn_hidden_3/dense/bias"
      }
    }
  }
  attr {
    key: "dtype"
    value {
      type: DT_FLOAT
    }
  }
  attr {
    key: "value"
    value {
      tensor {
        dtype: DT_FLOAT
        tensor_shape {
          dim {
            size: 256
          }
        }
        float_val: 0.0
      }
    }
  }
}
node {
  name: "deep_model/dnn_hidden_3/dense/bias"
  op: "VariableV2"
  device: "/device:GPU:0"
  attr {
    key: "_class"
    value {
      list {
        s: "loc:@deep_model/dnn_hidden_3/dense/bias"
      }
    }
  }
  attr {
    key: "container"
    value {
      s: ""
    }
  }
  attr {
    key: "dtype"
    value {
      type: DT_FLOAT
    }
  }
  attr {
    key: "shape"
    value {
      shape {
        dim {
          size: 256
        }
      }
    }
  }
  attr {
    key: "shared_name"
    value {
      s: ""
    }
  }
}
node {
  name: "deep_model/dnn_hidden_3/dense/bias/Assign"
  op: "Assign"
  input: "deep_model/dnn_hidden_3/dense/bias"
  input: "deep_model/dnn_hidden_3/dense/bias/Initializer/zeros"
  device: "/device:GPU:0"
  attr {
    key: "T"
    value {
      type: DT_FLOAT
    }
  }
  attr {
    key: "_class"
    value {
      list {
        s: "loc:@deep_model/dnn_hidden_3/dense/bias"
      }
    }
  }
  attr {
    key: "use_locking"
    value {
      b: true
    }
  }
  attr {
    key: "validate_shape"
    value {
      b: true
    }
  }
}
node {
  name: "deep_model/dnn_hidden_3/dense/bias/read"
  op: "Identity"
  input: "deep_model/dnn_hidden_3/dense/bias"
  device: "/device:GPU:0"
  attr {
    key: "T"
    value {
      type: DT_FLOAT
    }
  }
  attr {
    key: "_class"
    value {
      list {
        s: "loc:@deep_model/dnn_hidden_3/dense/bias"
      }
    }
  }
}
node {
  name: "deep_logits/deep_model/dnn_hidden_3/dense/MatMul"
  op: "MatMul"
  input: "deep_logits/deep_model/dnn_hidden_2/dropout/dropout/mul"
  input: "deep_model/dnn_hidden_3/dense/kernel/read"
  device: "/device:GPU:0"
  attr {
    key: "T"
    value {
      type: DT_FLOAT
    }
  }
  attr {
    key: "transpose_a"
    value {
      b: false
    }
  }
  attr {
    key: "transpose_b"
    value {
      b: false
    }
  }
}
node {
  name: "deep_logits/deep_model/dnn_hidden_3/dense/BiasAdd"
  op: "BiasAdd"
  input: "deep_logits/deep_model/dnn_hidden_3/dense/MatMul"
  input: "deep_model/dnn_hidden_3/dense/bias/read"
  device: "/device:GPU:0"
  attr {
    key: "T"
    value {
      type: DT_FLOAT
    }
  }
  attr {
    key: "data_format"
    value {
      s: "NHWC"
    }
  }
}
node {
  name: "deep_logits/deep_model/dnn_hidden_3/dense/Relu"
  op: "Relu"
  input: "deep_logits/deep_model/dnn_hidden_3/dense/BiasAdd"
  device: "/device:GPU:0"
  attr {
    key: "T"
    value {
      type: DT_FLOAT
    }
  }
}
node {
  name: "deep_logits/deep_model/dnn_hidden_3/dropout/dropout/keep_prob"
  op: "Const"
  device: "/device:GPU:0"
  attr {
    key: "dtype"
    value {
      type: DT_FLOAT
    }
  }
  attr {
    key: "value"
    value {
      tensor {
        dtype: DT_FLOAT
        tensor_shape {
        }
        float_val: 0.10000000149
      }
    }
  }
}
node {
  name: "deep_logits/deep_model/dnn_hidden_3/dropout/dropout/Shape"
  op: "Shape"
  input: "deep_logits/deep_model/dnn_hidden_3/dense/Relu"
  device: "/device:GPU:0"
  attr {
    key: "T"
    value {
      type: DT_FLOAT
    }
  }
  attr {
    key: "out_type"
    value {
      type: DT_INT32
    }
  }
}
node {
  name: "deep_logits/deep_model/dnn_hidden_3/dropout/dropout/random_uniform/min"
  op: "Const"
  device: "/device:GPU:0"
  attr {
    key: "dtype"
    value {
      type: DT_FLOAT
    }
  }
  attr {
    key: "value"
    value {
      tensor {
        dtype: DT_FLOAT
        tensor_shape {
        }
        float_val: 0.0
      }
    }
  }
}
node {
  name: "deep_logits/deep_model/dnn_hidden_3/dropout/dropout/random_uniform/max"
  op: "Const"
  device: "/device:GPU:0"
  attr {
    key: "dtype"
    value {
      type: DT_FLOAT
    }
  }
  attr {
    key: "value"
    value {
      tensor {
        dtype: DT_FLOAT
        tensor_shape {
        }
        float_val: 1.0
      }
    }
  }
}
node {
  name: "deep_logits/deep_model/dnn_hidden_3/dropout/dropout/random_uniform/RandomUniform"
  op: "RandomUniform"
  input: "deep_logits/deep_model/dnn_hidden_3/dropout/dropout/Shape"
  device: "/device:GPU:0"
  attr {
    key: "T"
    value {
      type: DT_INT32
    }
  }
  attr {
    key: "dtype"
    value {
      type: DT_FLOAT
    }
  }
  attr {
    key: "seed"
    value {
      i: 0
    }
  }
  attr {
    key: "seed2"
    value {
      i: 0
    }
  }
}
node {
  name: "deep_logits/deep_model/dnn_hidden_3/dropout/dropout/random_uniform/sub"
  op: "Sub"
  input: "deep_logits/deep_model/dnn_hidden_3/dropout/dropout/random_uniform/max"
  input: "deep_logits/deep_model/dnn_hidden_3/dropout/dropout/random_uniform/min"
  device: "/device:GPU:0"
  attr {
    key: "T"
    value {
      type: DT_FLOAT
    }
  }
}
node {
  name: "deep_logits/deep_model/dnn_hidden_3/dropout/dropout/random_uniform/mul"
  op: "Mul"
  input: "deep_logits/deep_model/dnn_hidden_3/dropout/dropout/random_uniform/RandomUniform"
  input: "deep_logits/deep_model/dnn_hidden_3/dropout/dropout/random_uniform/sub"
  device: "/device:GPU:0"
  attr {
    key: "T"
    value {
      type: DT_FLOAT
    }
  }
}
node {
  name: "deep_logits/deep_model/dnn_hidden_3/dropout/dropout/random_uniform"
  op: "Add"
  input: "deep_logits/deep_model/dnn_hidden_3/dropout/dropout/random_uniform/mul"
  input: "deep_logits/deep_model/dnn_hidden_3/dropout/dropout/random_uniform/min"
  device: "/device:GPU:0"
  attr {
    key: "T"
    value {
      type: DT_FLOAT
    }
  }
}
node {
  name: "deep_logits/deep_model/dnn_hidden_3/dropout/dropout/add"
  op: "Add"
  input: "deep_logits/deep_model/dnn_hidden_3/dropout/dropout/keep_prob"
  input: "deep_logits/deep_model/dnn_hidden_3/dropout/dropout/random_uniform"
  device: "/device:GPU:0"
  attr {
    key: "T"
    value {
      type: DT_FLOAT
    }
  }
}
node {
  name: "deep_logits/deep_model/dnn_hidden_3/dropout/dropout/Floor"
  op: "Floor"
  input: "deep_logits/deep_model/dnn_hidden_3/dropout/dropout/add"
  device: "/device:GPU:0"
  attr {
    key: "T"
    value {
      type: DT_FLOAT
    }
  }
}
node {
  name: "deep_logits/deep_model/dnn_hidden_3/dropout/dropout/div"
  op: "RealDiv"
  input: "deep_logits/deep_model/dnn_hidden_3/dense/Relu"
  input: "deep_logits/deep_model/dnn_hidden_3/dropout/dropout/keep_prob"
  device: "/device:GPU:0"
  attr {
    key: "T"
    value {
      type: DT_FLOAT
    }
  }
}
node {
  name: "deep_logits/deep_model/dnn_hidden_3/dropout/dropout/mul"
  op: "Mul"
  input: "deep_logits/deep_model/dnn_hidden_3/dropout/dropout/div"
  input: "deep_logits/deep_model/dnn_hidden_3/dropout/dropout/Floor"
  device: "/device:GPU:0"
  attr {
    key: "T"
    value {
      type: DT_FLOAT
    }
  }
}
node {
  name: "deep_logits/deep_model/dnn_hidden_3/zero_fraction/zero"
  op: "Const"
  device: "/device:GPU:0"
  attr {
    key: "dtype"
    value {
      type: DT_FLOAT
    }
  }
  attr {
    key: "value"
    value {
      tensor {
        dtype: DT_FLOAT
        tensor_shape {
        }
        float_val: 0.0
      }
    }
  }
}
node {
  name: "deep_logits/deep_model/dnn_hidden_3/zero_fraction/Equal"
  op: "Equal"
  input: "deep_logits/deep_model/dnn_hidden_3/dropout/dropout/mul"
  input: "deep_logits/deep_model/dnn_hidden_3/zero_fraction/zero"
  device: "/device:GPU:0"
  attr {
    key: "T"
    value {
      type: DT_FLOAT
    }
  }
}
node {
  name: "deep_logits/deep_model/dnn_hidden_3/zero_fraction/Cast"
  op: "Cast"
  input: "deep_logits/deep_model/dnn_hidden_3/zero_fraction/Equal"
  device: "/device:GPU:0"
  attr {
    key: "DstT"
    value {
      type: DT_FLOAT
    }
  }
  attr {
    key: "SrcT"
    value {
      type: DT_BOOL
    }
  }
}
node {
  name: "deep_logits/deep_model/dnn_hidden_3/zero_fraction/Const"
  op: "Const"
  device: "/device:GPU:0"
  attr {
    key: "dtype"
    value {
      type: DT_INT32
    }
  }
  attr {
    key: "value"
    value {
      tensor {
        dtype: DT_INT32
        tensor_shape {
          dim {
            size: 2
          }
        }
        tensor_content: "\000\000\000\000\001\000\000\000"
      }
    }
  }
}
node {
  name: "deep_logits/deep_model/dnn_hidden_3/zero_fraction/Mean"
  op: "Mean"
  input: "deep_logits/deep_model/dnn_hidden_3/zero_fraction/Cast"
  input: "deep_logits/deep_model/dnn_hidden_3/zero_fraction/Const"
  device: "/device:GPU:0"
  attr {
    key: "T"
    value {
      type: DT_FLOAT
    }
  }
  attr {
    key: "Tidx"
    value {
      type: DT_INT32
    }
  }
  attr {
    key: "keep_dims"
    value {
      b: false
    }
  }
}
node {
  name: "deep_logits/deep_model/dnn_hidden_3/deep_model/dnn_hidden_3/fraction_of_zero_values/tags"
  op: "Const"
  device: "/device:GPU:0"
  attr {
    key: "dtype"
    value {
      type: DT_STRING
    }
  }
  attr {
    key: "value"
    value {
      tensor {
        dtype: DT_STRING
        tensor_shape {
        }
        string_val: "deep_logits/deep_model/dnn_hidden_3/deep_model/dnn_hidden_3/fraction_of_zero_values"
      }
    }
  }
}
node {
  name: "deep_logits/deep_model/dnn_hidden_3/deep_model/dnn_hidden_3/fraction_of_zero_values"
  op: "ScalarSummary"
  input: "deep_logits/deep_model/dnn_hidden_3/deep_model/dnn_hidden_3/fraction_of_zero_values/tags"
  input: "deep_logits/deep_model/dnn_hidden_3/zero_fraction/Mean"
  device: "/device:GPU:0"
  attr {
    key: "T"
    value {
      type: DT_FLOAT
    }
  }
}
node {
  name: "deep_logits/deep_model/dnn_hidden_3/deep_model/dnn_hidden_3/activation/tag"
  op: "Const"
  device: "/device:GPU:0"
  attr {
    key: "dtype"
    value {
      type: DT_STRING
    }
  }
  attr {
    key: "value"
    value {
      tensor {
        dtype: DT_STRING
        tensor_shape {
        }
        string_val: "deep_logits/deep_model/dnn_hidden_3/deep_model/dnn_hidden_3/activation"
      }
    }
  }
}
node {
  name: "deep_logits/deep_model/dnn_hidden_3/deep_model/dnn_hidden_3/activation"
  op: "HistogramSummary"
  input: "deep_logits/deep_model/dnn_hidden_3/deep_model/dnn_hidden_3/activation/tag"
  input: "deep_logits/deep_model/dnn_hidden_3/dropout/dropout/mul"
  device: "/device:GPU:0"
  attr {
    key: "T"
    value {
      type: DT_FLOAT
    }
  }
}
node {
  name: "deep_logits/deep_model/concat/axis"
  op: "Const"
  device: "/device:GPU:0"
  attr {
    key: "dtype"
    value {
      type: DT_INT32
    }
  }
  attr {
    key: "value"
    value {
      tensor {
        dtype: DT_INT32
        tensor_shape {
        }
        int_val: 1
      }
    }
  }
}
node {
  name: "deep_logits/deep_model/concat"
  op: "ConcatV2"
  input: "deep_logits/deep_model/dnn_hidden_3/dropout/dropout/mul"
  input: "deep_logits/concat"
  input: "deep_logits/deep_model/concat/axis"
  device: "/device:GPU:0"
  attr {
    key: "N"
    value {
      i: 2
    }
  }
  attr {
    key: "T"
    value {
      type: DT_FLOAT
    }
  }
  attr {
    key: "Tidx"
    value {
      type: DT_INT32
    }
  }
}
node {
  name: "deep_model/dnn_logits/dense/kernel/Initializer/random_uniform/shape"
  op: "Const"
  attr {
    key: "_class"
    value {
      list {
        s: "loc:@deep_model/dnn_logits/dense/kernel"
      }
    }
  }
  attr {
    key: "dtype"
    value {
      type: DT_INT32
    }
  }
  attr {
    key: "value"
    value {
      tensor {
        dtype: DT_INT32
        tensor_shape {
          dim {
            size: 2
          }
        }
        tensor_content: "\037\002\000\000\001\000\000\000"
      }
    }
  }
}
node {
  name: "deep_model/dnn_logits/dense/kernel/Initializer/random_uniform/min"
  op: "Const"
  attr {
    key: "_class"
    value {
      list {
        s: "loc:@deep_model/dnn_logits/dense/kernel"
      }
    }
  }
  attr {
    key: "dtype"
    value {
      type: DT_FLOAT
    }
  }
  attr {
    key: "value"
    value {
      tensor {
        dtype: DT_FLOAT
        tensor_shape {
        }
        float_val: -0.105021007359
      }
    }
  }
}
node {
  name: "deep_model/dnn_logits/dense/kernel/Initializer/random_uniform/max"
  op: "Const"
  attr {
    key: "_class"
    value {
      list {
        s: "loc:@deep_model/dnn_logits/dense/kernel"
      }
    }
  }
  attr {
    key: "dtype"
    value {
      type: DT_FLOAT
    }
  }
  attr {
    key: "value"
    value {
      tensor {
        dtype: DT_FLOAT
        tensor_shape {
        }
        float_val: 0.105021007359
      }
    }
  }
}
node {
  name: "deep_model/dnn_logits/dense/kernel/Initializer/random_uniform/RandomUniform"
  op: "RandomUniform"
  input: "deep_model/dnn_logits/dense/kernel/Initializer/random_uniform/shape"
  attr {
    key: "T"
    value {
      type: DT_INT32
    }
  }
  attr {
    key: "_class"
    value {
      list {
        s: "loc:@deep_model/dnn_logits/dense/kernel"
      }
    }
  }
  attr {
    key: "dtype"
    value {
      type: DT_FLOAT
    }
  }
  attr {
    key: "seed"
    value {
      i: 0
    }
  }
  attr {
    key: "seed2"
    value {
      i: 0
    }
  }
}
node {
  name: "deep_model/dnn_logits/dense/kernel/Initializer/random_uniform/sub"
  op: "Sub"
  input: "deep_model/dnn_logits/dense/kernel/Initializer/random_uniform/max"
  input: "deep_model/dnn_logits/dense/kernel/Initializer/random_uniform/min"
  attr {
    key: "T"
    value {
      type: DT_FLOAT
    }
  }
  attr {
    key: "_class"
    value {
      list {
        s: "loc:@deep_model/dnn_logits/dense/kernel"
      }
    }
  }
}
node {
  name: "deep_model/dnn_logits/dense/kernel/Initializer/random_uniform/mul"
  op: "Mul"
  input: "deep_model/dnn_logits/dense/kernel/Initializer/random_uniform/RandomUniform"
  input: "deep_model/dnn_logits/dense/kernel/Initializer/random_uniform/sub"
  attr {
    key: "T"
    value {
      type: DT_FLOAT
    }
  }
  attr {
    key: "_class"
    value {
      list {
        s: "loc:@deep_model/dnn_logits/dense/kernel"
      }
    }
  }
}
node {
  name: "deep_model/dnn_logits/dense/kernel/Initializer/random_uniform"
  op: "Add"
  input: "deep_model/dnn_logits/dense/kernel/Initializer/random_uniform/mul"
  input: "deep_model/dnn_logits/dense/kernel/Initializer/random_uniform/min"
  attr {
    key: "T"
    value {
      type: DT_FLOAT
    }
  }
  attr {
    key: "_class"
    value {
      list {
        s: "loc:@deep_model/dnn_logits/dense/kernel"
      }
    }
  }
}
node {
  name: "deep_model/dnn_logits/dense/kernel"
  op: "VariableV2"
  device: "/device:GPU:0"
  attr {
    key: "_class"
    value {
      list {
        s: "loc:@deep_model/dnn_logits/dense/kernel"
      }
    }
  }
  attr {
    key: "container"
    value {
      s: ""
    }
  }
  attr {
    key: "dtype"
    value {
      type: DT_FLOAT
    }
  }
  attr {
    key: "shape"
    value {
      shape {
        dim {
          size: 543
        }
        dim {
          size: 1
        }
      }
    }
  }
  attr {
    key: "shared_name"
    value {
      s: ""
    }
  }
}
node {
  name: "deep_model/dnn_logits/dense/kernel/Assign"
  op: "Assign"
  input: "deep_model/dnn_logits/dense/kernel"
  input: "deep_model/dnn_logits/dense/kernel/Initializer/random_uniform"
  device: "/device:GPU:0"
  attr {
    key: "T"
    value {
      type: DT_FLOAT
    }
  }
  attr {
    key: "_class"
    value {
      list {
        s: "loc:@deep_model/dnn_logits/dense/kernel"
      }
    }
  }
  attr {
    key: "use_locking"
    value {
      b: true
    }
  }
  attr {
    key: "validate_shape"
    value {
      b: true
    }
  }
}
node {
  name: "deep_model/dnn_logits/dense/kernel/read"
  op: "Identity"
  input: "deep_model/dnn_logits/dense/kernel"
  device: "/device:GPU:0"
  attr {
    key: "T"
    value {
      type: DT_FLOAT
    }
  }
  attr {
    key: "_class"
    value {
      list {
        s: "loc:@deep_model/dnn_logits/dense/kernel"
      }
    }
  }
}
node {
  name: "deep_model/dnn_logits/dense/bias/Initializer/random_uniform/shape"
  op: "Const"
  attr {
    key: "_class"
    value {
      list {
        s: "loc:@deep_model/dnn_logits/dense/bias"
      }
    }
  }
  attr {
    key: "dtype"
    value {
      type: DT_INT32
    }
  }
  attr {
    key: "value"
    value {
      tensor {
        dtype: DT_INT32
        tensor_shape {
          dim {
            size: 1
          }
        }
        int_val: 1
      }
    }
  }
}
node {
  name: "deep_model/dnn_logits/dense/bias/Initializer/random_uniform/min"
  op: "Const"
  attr {
    key: "_class"
    value {
      list {
        s: "loc:@deep_model/dnn_logits/dense/bias"
      }
    }
  }
  attr {
    key: "dtype"
    value {
      type: DT_FLOAT
    }
  }
  attr {
    key: "value"
    value {
      tensor {
        dtype: DT_FLOAT
        tensor_shape {
        }
        float_val: -1.73205077648
      }
    }
  }
}
node {
  name: "deep_model/dnn_logits/dense/bias/Initializer/random_uniform/max"
  op: "Const"
  attr {
    key: "_class"
    value {
      list {
        s: "loc:@deep_model/dnn_logits/dense/bias"
      }
    }
  }
  attr {
    key: "dtype"
    value {
      type: DT_FLOAT
    }
  }
  attr {
    key: "value"
    value {
      tensor {
        dtype: DT_FLOAT
        tensor_shape {
        }
        float_val: 1.73205077648
      }
    }
  }
}
node {
  name: "deep_model/dnn_logits/dense/bias/Initializer/random_uniform/RandomUniform"
  op: "RandomUniform"
  input: "deep_model/dnn_logits/dense/bias/Initializer/random_uniform/shape"
  attr {
    key: "T"
    value {
      type: DT_INT32
    }
  }
  attr {
    key: "_class"
    value {
      list {
        s: "loc:@deep_model/dnn_logits/dense/bias"
      }
    }
  }
  attr {
    key: "dtype"
    value {
      type: DT_FLOAT
    }
  }
  attr {
    key: "seed"
    value {
      i: 0
    }
  }
  attr {
    key: "seed2"
    value {
      i: 0
    }
  }
}
node {
  name: "deep_model/dnn_logits/dense/bias/Initializer/random_uniform/sub"
  op: "Sub"
  input: "deep_model/dnn_logits/dense/bias/Initializer/random_uniform/max"
  input: "deep_model/dnn_logits/dense/bias/Initializer/random_uniform/min"
  attr {
    key: "T"
    value {
      type: DT_FLOAT
    }
  }
  attr {
    key: "_class"
    value {
      list {
        s: "loc:@deep_model/dnn_logits/dense/bias"
      }
    }
  }
}
node {
  name: "deep_model/dnn_logits/dense/bias/Initializer/random_uniform/mul"
  op: "Mul"
  input: "deep_model/dnn_logits/dense/bias/Initializer/random_uniform/RandomUniform"
  input: "deep_model/dnn_logits/dense/bias/Initializer/random_uniform/sub"
  attr {
    key: "T"
    value {
      type: DT_FLOAT
    }
  }
  attr {
    key: "_class"
    value {
      list {
        s: "loc:@deep_model/dnn_logits/dense/bias"
      }
    }
  }
}
node {
  name: "deep_model/dnn_logits/dense/bias/Initializer/random_uniform"
  op: "Add"
  input: "deep_model/dnn_logits/dense/bias/Initializer/random_uniform/mul"
  input: "deep_model/dnn_logits/dense/bias/Initializer/random_uniform/min"
  attr {
    key: "T"
    value {
      type: DT_FLOAT
    }
  }
  attr {
    key: "_class"
    value {
      list {
        s: "loc:@deep_model/dnn_logits/dense/bias"
      }
    }
  }
}
node {
  name: "deep_model/dnn_logits/dense/bias"
  op: "VariableV2"
  device: "/device:GPU:0"
  attr {
    key: "_class"
    value {
      list {
        s: "loc:@deep_model/dnn_logits/dense/bias"
      }
    }
  }
  attr {
    key: "container"
    value {
      s: ""
    }
  }
  attr {
    key: "dtype"
    value {
      type: DT_FLOAT
    }
  }
  attr {
    key: "shape"
    value {
      shape {
        dim {
          size: 1
        }
      }
    }
  }
  attr {
    key: "shared_name"
    value {
      s: ""
    }
  }
}
node {
  name: "deep_model/dnn_logits/dense/bias/Assign"
  op: "Assign"
  input: "deep_model/dnn_logits/dense/bias"
  input: "deep_model/dnn_logits/dense/bias/Initializer/random_uniform"
  device: "/device:GPU:0"
  attr {
    key: "T"
    value {
      type: DT_FLOAT
    }
  }
  attr {
    key: "_class"
    value {
      list {
        s: "loc:@deep_model/dnn_logits/dense/bias"
      }
    }
  }
  attr {
    key: "use_locking"
    value {
      b: true
    }
  }
  attr {
    key: "validate_shape"
    value {
      b: true
    }
  }
}
node {
  name: "deep_model/dnn_logits/dense/bias/read"
  op: "Identity"
  input: "deep_model/dnn_logits/dense/bias"
  device: "/device:GPU:0"
  attr {
    key: "T"
    value {
      type: DT_FLOAT
    }
  }
  attr {
    key: "_class"
    value {
      list {
        s: "loc:@deep_model/dnn_logits/dense/bias"
      }
    }
  }
}
node {
  name: "deep_logits/deep_model/dnn_logits/dense/MatMul"
  op: "MatMul"
  input: "deep_logits/deep_model/concat"
  input: "deep_model/dnn_logits/dense/kernel/read"
  device: "/device:GPU:0"
  attr {
    key: "T"
    value {
      type: DT_FLOAT
    }
  }
  attr {
    key: "transpose_a"
    value {
      b: false
    }
  }
  attr {
    key: "transpose_b"
    value {
      b: false
    }
  }
}
node {
  name: "deep_logits/deep_model/dnn_logits/dense/BiasAdd"
  op: "BiasAdd"
  input: "deep_logits/deep_model/dnn_logits/dense/MatMul"
  input: "deep_model/dnn_logits/dense/bias/read"
  device: "/device:GPU:0"
  attr {
    key: "T"
    value {
      type: DT_FLOAT
    }
  }
  attr {
    key: "data_format"
    value {
      s: "NHWC"
    }
  }
}
node {
  name: "deep_logits/deep_model/dnn_logits/zero_fraction/zero"
  op: "Const"
  device: "/device:GPU:0"
  attr {
    key: "dtype"
    value {
      type: DT_FLOAT
    }
  }
  attr {
    key: "value"
    value {
      tensor {
        dtype: DT_FLOAT
        tensor_shape {
        }
        float_val: 0.0
      }
    }
  }
}
node {
  name: "deep_logits/deep_model/dnn_logits/zero_fraction/Equal"
  op: "Equal"
  input: "deep_logits/deep_model/dnn_logits/dense/BiasAdd"
  input: "deep_logits/deep_model/dnn_logits/zero_fraction/zero"
  device: "/device:GPU:0"
  attr {
    key: "T"
    value {
      type: DT_FLOAT
    }
  }
}
node {
  name: "deep_logits/deep_model/dnn_logits/zero_fraction/Cast"
  op: "Cast"
  input: "deep_logits/deep_model/dnn_logits/zero_fraction/Equal"
  device: "/device:GPU:0"
  attr {
    key: "DstT"
    value {
      type: DT_FLOAT
    }
  }
  attr {
    key: "SrcT"
    value {
      type: DT_BOOL
    }
  }
}
node {
  name: "deep_logits/deep_model/dnn_logits/zero_fraction/Const"
  op: "Const"
  device: "/device:GPU:0"
  attr {
    key: "dtype"
    value {
      type: DT_INT32
    }
  }
  attr {
    key: "value"
    value {
      tensor {
        dtype: DT_INT32
        tensor_shape {
          dim {
            size: 2
          }
        }
        tensor_content: "\000\000\000\000\001\000\000\000"
      }
    }
  }
}
node {
  name: "deep_logits/deep_model/dnn_logits/zero_fraction/Mean"
  op: "Mean"
  input: "deep_logits/deep_model/dnn_logits/zero_fraction/Cast"
  input: "deep_logits/deep_model/dnn_logits/zero_fraction/Const"
  device: "/device:GPU:0"
  attr {
    key: "T"
    value {
      type: DT_FLOAT
    }
  }
  attr {
    key: "Tidx"
    value {
      type: DT_INT32
    }
  }
  attr {
    key: "keep_dims"
    value {
      b: false
    }
  }
}
node {
  name: "deep_logits/deep_model/dnn_logits/deep_model/dnn_logits/fraction_of_zero_values/tags"
  op: "Const"
  device: "/device:GPU:0"
  attr {
    key: "dtype"
    value {
      type: DT_STRING
    }
  }
  attr {
    key: "value"
    value {
      tensor {
        dtype: DT_STRING
        tensor_shape {
        }
        string_val: "deep_logits/deep_model/dnn_logits/deep_model/dnn_logits/fraction_of_zero_values"
      }
    }
  }
}
node {
  name: "deep_logits/deep_model/dnn_logits/deep_model/dnn_logits/fraction_of_zero_values"
  op: "ScalarSummary"
  input: "deep_logits/deep_model/dnn_logits/deep_model/dnn_logits/fraction_of_zero_values/tags"
  input: "deep_logits/deep_model/dnn_logits/zero_fraction/Mean"
  device: "/device:GPU:0"
  attr {
    key: "T"
    value {
      type: DT_FLOAT
    }
  }
}
node {
  name: "deep_logits/deep_model/dnn_logits/deep_model/dnn_logits/activation/tag"
  op: "Const"
  device: "/device:GPU:0"
  attr {
    key: "dtype"
    value {
      type: DT_STRING
    }
  }
  attr {
    key: "value"
    value {
      tensor {
        dtype: DT_STRING
        tensor_shape {
        }
        string_val: "deep_logits/deep_model/dnn_logits/deep_model/dnn_logits/activation"
      }
    }
  }
}
node {
  name: "deep_logits/deep_model/dnn_logits/deep_model/dnn_logits/activation"
  op: "HistogramSummary"
  input: "deep_logits/deep_model/dnn_logits/deep_model/dnn_logits/activation/tag"
  input: "deep_logits/deep_model/dnn_logits/dense/BiasAdd"
  device: "/device:GPU:0"
  attr {
    key: "T"
    value {
      type: DT_FLOAT
    }
  }
}
node {
  name: "deep_logits/tag"
  op: "Const"
  device: "/device:GPU:0"
  attr {
    key: "dtype"
    value {
      type: DT_STRING
    }
  }
  attr {
    key: "value"
    value {
      tensor {
        dtype: DT_STRING
        tensor_shape {
        }
        string_val: "deep_logits"
      }
    }
  }
}
node {
  name: "deep_logits"
  op: "HistogramSummary"
  input: "deep_logits/tag"
  input: "deep_logits/deep_model/dnn_logits/dense/BiasAdd"
  device: "/device:GPU:0"
  attr {
    key: "T"
    value {
      type: DT_FLOAT
    }
  }
}
node {
  name: "wide_logits/wide_process/strided_slice/stack"
  op: "Const"
  device: "/device:GPU:1"
  attr {
    key: "dtype"
    value {
      type: DT_INT32
    }
  }
  attr {
    key: "value"
    value {
      tensor {
        dtype: DT_INT32
        tensor_shape {
          dim {
            size: 2
          }
        }
        tensor_content: "\000\000\000\000\000\000\000\000"
      }
    }
  }
}
node {
  name: "wide_logits/wide_process/strided_slice/stack_1"
  op: "Const"
  device: "/device:GPU:1"
  attr {
    key: "dtype"
    value {
      type: DT_INT32
    }
  }
  attr {
    key: "value"
    value {
      tensor {
        dtype: DT_INT32
        tensor_shape {
          dim {
            size: 2
          }
        }
        tensor_content: "\000\000\000\000\001\000\000\000"
      }
    }
  }
}
node {
  name: "wide_logits/wide_process/strided_slice/stack_2"
  op: "Const"
  device: "/device:GPU:1"
  attr {
    key: "dtype"
    value {
      type: DT_INT32
    }
  }
  attr {
    key: "value"
    value {
      tensor {
        dtype: DT_INT32
        tensor_shape {
          dim {
            size: 2
          }
        }
        tensor_content: "\001\000\000\000\001\000\000\000"
      }
    }
  }
}
node {
  name: "wide_logits/wide_process/strided_slice"
  op: "StridedSlice"
  input: "INPUT/wide_placeholder"
  input: "wide_logits/wide_process/strided_slice/stack"
  input: "wide_logits/wide_process/strided_slice/stack_1"
  input: "wide_logits/wide_process/strided_slice/stack_2"
  device: "/device:GPU:1"
  attr {
    key: "Index"
    value {
      type: DT_INT32
    }
  }
  attr {
    key: "T"
    value {
      type: DT_STRING
    }
  }
  attr {
    key: "begin_mask"
    value {
      i: 1
    }
  }
  attr {
    key: "ellipsis_mask"
    value {
      i: 0
    }
  }
  attr {
    key: "end_mask"
    value {
      i: 1
    }
  }
  attr {
    key: "new_axis_mask"
    value {
      i: 0
    }
  }
  attr {
    key: "shrink_axis_mask"
    value {
      i: 2
    }
  }
}
node {
  name: "wide_logits/wide_process/Const"
  op: "Const"
  device: "/device:GPU:1"
  attr {
    key: "dtype"
    value {
      type: DT_STRING
    }
  }
  attr {
    key: "value"
    value {
      tensor {
        dtype: DT_STRING
        tensor_shape {
        }
        string_val: "##"
      }
    }
  }
}
node {
  name: "wide_logits/wide_process/StringSplit"
  op: "StringSplit"
  input: "wide_logits/wide_process/strided_slice"
  input: "wide_logits/wide_process/Const"
  device: "/device:GPU:1"
}
node {
  name: "wide_logits/wide_process/StringToHashBucketFast"
  op: "StringToHashBucketFast"
  input: "wide_logits/wide_process/StringSplit:1"
  device: "/device:GPU:1"
  attr {
    key: "num_buckets"
    value {
      i: 10000
    }
  }
}
node {
  name: "wide_logits/wide_process/strided_slice_1/stack"
  op: "Const"
  device: "/device:GPU:1"
  attr {
    key: "dtype"
    value {
      type: DT_INT32
    }
  }
  attr {
    key: "value"
    value {
      tensor {
        dtype: DT_INT32
        tensor_shape {
          dim {
            size: 2
          }
        }
        tensor_content: "\000\000\000\000\001\000\000\000"
      }
    }
  }
}
node {
  name: "wide_logits/wide_process/strided_slice_1/stack_1"
  op: "Const"
  device: "/device:GPU:1"
  attr {
    key: "dtype"
    value {
      type: DT_INT32
    }
  }
  attr {
    key: "value"
    value {
      tensor {
        dtype: DT_INT32
        tensor_shape {
          dim {
            size: 2
          }
        }
        tensor_content: "\000\000\000\000\002\000\000\000"
      }
    }
  }
}
node {
  name: "wide_logits/wide_process/strided_slice_1/stack_2"
  op: "Const"
  device: "/device:GPU:1"
  attr {
    key: "dtype"
    value {
      type: DT_INT32
    }
  }
  attr {
    key: "value"
    value {
      tensor {
        dtype: DT_INT32
        tensor_shape {
          dim {
            size: 2
          }
        }
        tensor_content: "\001\000\000\000\001\000\000\000"
      }
    }
  }
}
node {
  name: "wide_logits/wide_process/strided_slice_1"
  op: "StridedSlice"
  input: "INPUT/wide_placeholder"
  input: "wide_logits/wide_process/strided_slice_1/stack"
  input: "wide_logits/wide_process/strided_slice_1/stack_1"
  input: "wide_logits/wide_process/strided_slice_1/stack_2"
  device: "/device:GPU:1"
  attr {
    key: "Index"
    value {
      type: DT_INT32
    }
  }
  attr {
    key: "T"
    value {
      type: DT_STRING
    }
  }
  attr {
    key: "begin_mask"
    value {
      i: 1
    }
  }
  attr {
    key: "ellipsis_mask"
    value {
      i: 0
    }
  }
  attr {
    key: "end_mask"
    value {
      i: 1
    }
  }
  attr {
    key: "new_axis_mask"
    value {
      i: 0
    }
  }
  attr {
    key: "shrink_axis_mask"
    value {
      i: 2
    }
  }
}
node {
  name: "wide_logits/wide_process/Const_1"
  op: "Const"
  device: "/device:GPU:1"
  attr {
    key: "dtype"
    value {
      type: DT_STRING
    }
  }
  attr {
    key: "value"
    value {
      tensor {
        dtype: DT_STRING
        tensor_shape {
        }
        string_val: "##"
      }
    }
  }
}
node {
  name: "wide_logits/wide_process/StringSplit_1"
  op: "StringSplit"
  input: "wide_logits/wide_process/strided_slice_1"
  input: "wide_logits/wide_process/Const_1"
  device: "/device:GPU:1"
}
node {
  name: "wide_logits/wide_process/StringToHashBucketFast_1"
  op: "StringToHashBucketFast"
  input: "wide_logits/wide_process/StringSplit_1:1"
  device: "/device:GPU:1"
  attr {
    key: "num_buckets"
    value {
      i: 10000
    }
  }
}
node {
  name: "wide_logits/wide_process/SparseCross"
  op: "SparseCross"
  input: "wide_logits/wide_process/StringSplit"
  input: "wide_logits/wide_process/StringSplit_1"
  input: "wide_logits/wide_process/StringToHashBucketFast"
  input: "wide_logits/wide_process/StringToHashBucketFast_1"
  input: "wide_logits/wide_process/StringSplit:2"
  input: "wide_logits/wide_process/StringSplit_1:2"
  device: "/device:GPU:1"
  attr {
    key: "N"
    value {
      i: 2
    }
  }
  attr {
    key: "dense_types"
    value {
      list {
      }
    }
  }
  attr {
    key: "hash_key"
    value {
      i: 956888297470
    }
  }
  attr {
    key: "hashed_output"
    value {
      b: true
    }
  }
  attr {
    key: "internal_type"
    value {
      type: DT_INT64
    }
  }
  attr {
    key: "num_buckets"
    value {
      i: 10000
    }
  }
  attr {
    key: "out_type"
    value {
      type: DT_INT64
    }
  }
  attr {
    key: "sparse_types"
    value {
      list {
        type: DT_INT64
        type: DT_INT64
      }
    }
  }
}
node {
  name: "wide_logits/wide_process/SparseConcat"
  op: "SparseConcat"
  input: "wide_logits/wide_process/StringSplit"
  input: "wide_logits/wide_process/StringSplit_1"
  input: "wide_logits/wide_process/SparseCross"
  input: "wide_logits/wide_process/StringToHashBucketFast"
  input: "wide_logits/wide_process/StringToHashBucketFast_1"
  input: "wide_logits/wide_process/SparseCross:1"
  input: "wide_logits/wide_process/StringSplit:2"
  input: "wide_logits/wide_process/StringSplit_1:2"
  input: "wide_logits/wide_process/SparseCross:2"
  device: "/device:GPU:1"
  attr {
    key: "N"
    value {
      i: 3
    }
  }
  attr {
    key: "T"
    value {
      type: DT_INT64
    }
  }
  attr {
    key: "concat_dim"
    value {
      i: 1
    }
  }
}
node {
  name: "wide_logits/wide_model/wide_init_w/shape"
  op: "Const"
  device: "/device:GPU:1"
  attr {
    key: "dtype"
    value {
      type: DT_INT32
    }
  }
  attr {
    key: "value"
    value {
      tensor {
        dtype: DT_INT32
        tensor_shape {
          dim {
            size: 1
          }
        }
        int_val: 40000
      }
    }
  }
}
node {
  name: "wide_logits/wide_model/wide_init_w/mean"
  op: "Const"
  device: "/device:GPU:1"
  attr {
    key: "dtype"
    value {
      type: DT_FLOAT
    }
  }
  attr {
    key: "value"
    value {
      tensor {
        dtype: DT_FLOAT
        tensor_shape {
        }
        float_val: 0.0
      }
    }
  }
}
node {
  name: "wide_logits/wide_model/wide_init_w/stddev"
  op: "Const"
  device: "/device:GPU:1"
  attr {
    key: "dtype"
    value {
      type: DT_FLOAT
    }
  }
  attr {
    key: "value"
    value {
      tensor {
        dtype: DT_FLOAT
        tensor_shape {
        }
        float_val: 1.0
      }
    }
  }
}
node {
  name: "wide_logits/wide_model/wide_init_w/TruncatedNormal"
  op: "TruncatedNormal"
  input: "wide_logits/wide_model/wide_init_w/shape"
  device: "/device:GPU:1"
  attr {
    key: "T"
    value {
      type: DT_INT32
    }
  }
  attr {
    key: "dtype"
    value {
      type: DT_FLOAT
    }
  }
  attr {
    key: "seed"
    value {
      i: 0
    }
  }
  attr {
    key: "seed2"
    value {
      i: 0
    }
  }
}
node {
  name: "wide_logits/wide_model/wide_init_w/mul"
  op: "Mul"
  input: "wide_logits/wide_model/wide_init_w/TruncatedNormal"
  input: "wide_logits/wide_model/wide_init_w/stddev"
  device: "/device:GPU:1"
  attr {
    key: "T"
    value {
      type: DT_FLOAT
    }
  }
}
node {
  name: "wide_logits/wide_model/wide_init_w"
  op: "Add"
  input: "wide_logits/wide_model/wide_init_w/mul"
  input: "wide_logits/wide_model/wide_init_w/mean"
  device: "/device:GPU:1"
  attr {
    key: "T"
    value {
      type: DT_FLOAT
    }
  }
}
node {
  name: "wide_logits/wide_model/Variable"
  op: "VariableV2"
  device: "/device:GPU:1"
  attr {
    key: "container"
    value {
      s: ""
    }
  }
  attr {
    key: "dtype"
    value {
      type: DT_FLOAT
    }
  }
  attr {
    key: "shape"
    value {
      shape {
        dim {
          size: 40000
        }
      }
    }
  }
  attr {
    key: "shared_name"
    value {
      s: ""
    }
  }
}
node {
  name: "wide_logits/wide_model/Variable/Assign"
  op: "Assign"
  input: "wide_logits/wide_model/Variable"
  input: "wide_logits/wide_model/wide_init_w"
  device: "/device:GPU:1"
  attr {
    key: "T"
    value {
      type: DT_FLOAT
    }
  }
  attr {
    key: "_class"
    value {
      list {
        s: "loc:@wide_logits/wide_model/Variable"
      }
    }
  }
  attr {
    key: "use_locking"
    value {
      b: true
    }
  }
  attr {
    key: "validate_shape"
    value {
      b: true
    }
  }
}
node {
  name: "wide_logits/wide_model/Variable/read"
  op: "Identity"
  input: "wide_logits/wide_model/Variable"
  device: "/device:GPU:1"
  attr {
    key: "T"
    value {
      type: DT_FLOAT
    }
  }
  attr {
    key: "_class"
    value {
      list {
        s: "loc:@wide_logits/wide_model/Variable"
      }
    }
  }
}
node {
  name: "wide_logits/wide_model/random_normal/shape"
  op: "Const"
  device: "/device:GPU:1"
  attr {
    key: "dtype"
    value {
      type: DT_INT32
    }
  }
  attr {
    key: "value"
    value {
      tensor {
        dtype: DT_INT32
        tensor_shape {
          dim {
            size: 1
          }
        }
        int_val: 1
      }
    }
  }
}
node {
  name: "wide_logits/wide_model/random_normal/mean"
  op: "Const"
  device: "/device:GPU:1"
  attr {
    key: "dtype"
    value {
      type: DT_FLOAT
    }
  }
  attr {
    key: "value"
    value {
      tensor {
        dtype: DT_FLOAT
        tensor_shape {
        }
        float_val: 0.0
      }
    }
  }
}
node {
  name: "wide_logits/wide_model/random_normal/stddev"
  op: "Const"
  device: "/device:GPU:1"
  attr {
    key: "dtype"
    value {
      type: DT_FLOAT
    }
  }
  attr {
    key: "value"
    value {
      tensor {
        dtype: DT_FLOAT
        tensor_shape {
        }
        float_val: 1.0
      }
    }
  }
}
node {
  name: "wide_logits/wide_model/random_normal/RandomStandardNormal"
  op: "RandomStandardNormal"
  input: "wide_logits/wide_model/random_normal/shape"
  device: "/device:GPU:1"
  attr {
    key: "T"
    value {
      type: DT_INT32
    }
  }
  attr {
    key: "dtype"
    value {
      type: DT_FLOAT
    }
  }
  attr {
    key: "seed"
    value {
      i: 0
    }
  }
  attr {
    key: "seed2"
    value {
      i: 0
    }
  }
}
node {
  name: "wide_logits/wide_model/random_normal/mul"
  op: "Mul"
  input: "wide_logits/wide_model/random_normal/RandomStandardNormal"
  input: "wide_logits/wide_model/random_normal/stddev"
  device: "/device:GPU:1"
  attr {
    key: "T"
    value {
      type: DT_FLOAT
    }
  }
}
node {
  name: "wide_logits/wide_model/random_normal"
  op: "Add"
  input: "wide_logits/wide_model/random_normal/mul"
  input: "wide_logits/wide_model/random_normal/mean"
  device: "/device:GPU:1"
  attr {
    key: "T"
    value {
      type: DT_FLOAT
    }
  }
}
node {
  name: "wide_logits/wide_model/Variable_1"
  op: "VariableV2"
  device: "/device:GPU:1"
  attr {
    key: "container"
    value {
      s: ""
    }
  }
  attr {
    key: "dtype"
    value {
      type: DT_FLOAT
    }
  }
  attr {
    key: "shape"
    value {
      shape {
        dim {
          size: 1
        }
      }
    }
  }
  attr {
    key: "shared_name"
    value {
      s: ""
    }
  }
}
node {
  name: "wide_logits/wide_model/Variable_1/Assign"
  op: "Assign"
  input: "wide_logits/wide_model/Variable_1"
  input: "wide_logits/wide_model/random_normal"
  device: "/device:GPU:1"
  attr {
    key: "T"
    value {
      type: DT_FLOAT
    }
  }
  attr {
    key: "_class"
    value {
      list {
        s: "loc:@wide_logits/wide_model/Variable_1"
      }
    }
  }
  attr {
    key: "use_locking"
    value {
      b: true
    }
  }
  attr {
    key: "validate_shape"
    value {
      b: true
    }
  }
}
node {
  name: "wide_logits/wide_model/Variable_1/read"
  op: "Identity"
  input: "wide_logits/wide_model/Variable_1"
  device: "/device:GPU:1"
  attr {
    key: "T"
    value {
      type: DT_FLOAT
    }
  }
  attr {
    key: "_class"
    value {
      list {
        s: "loc:@wide_logits/wide_model/Variable_1"
      }
    }
  }
}
node {
  name: "wide_logits/wide_model/embedding_lookup_sparse/strided_slice/stack"
  op: "Const"
  device: "/device:GPU:1"
  attr {
    key: "dtype"
    value {
      type: DT_INT32
    }
  }
  attr {
    key: "value"
    value {
      tensor {
        dtype: DT_INT32
        tensor_shape {
          dim {
            size: 2
          }
        }
        tensor_content: "\000\000\000\000\000\000\000\000"
      }
    }
  }
}
node {
  name: "wide_logits/wide_model/embedding_lookup_sparse/strided_slice/stack_1"
  op: "Const"
  device: "/device:GPU:1"
  attr {
    key: "dtype"
    value {
      type: DT_INT32
    }
  }
  attr {
    key: "value"
    value {
      tensor {
        dtype: DT_INT32
        tensor_shape {
          dim {
            size: 2
          }
        }
        tensor_content: "\000\000\000\000\001\000\000\000"
      }
    }
  }
}
node {
  name: "wide_logits/wide_model/embedding_lookup_sparse/strided_slice/stack_2"
  op: "Const"
  device: "/device:GPU:1"
  attr {
    key: "dtype"
    value {
      type: DT_INT32
    }
  }
  attr {
    key: "value"
    value {
      tensor {
        dtype: DT_INT32
        tensor_shape {
          dim {
            size: 2
          }
        }
        tensor_content: "\001\000\000\000\001\000\000\000"
      }
    }
  }
}
node {
  name: "wide_logits/wide_model/embedding_lookup_sparse/strided_slice"
  op: "StridedSlice"
  input: "wide_logits/wide_process/SparseConcat"
  input: "wide_logits/wide_model/embedding_lookup_sparse/strided_slice/stack"
  input: "wide_logits/wide_model/embedding_lookup_sparse/strided_slice/stack_1"
  input: "wide_logits/wide_model/embedding_lookup_sparse/strided_slice/stack_2"
  device: "/device:GPU:1"
  attr {
    key: "Index"
    value {
      type: DT_INT32
    }
  }
  attr {
    key: "T"
    value {
      type: DT_INT64
    }
  }
  attr {
    key: "begin_mask"
    value {
      i: 1
    }
  }
  attr {
    key: "ellipsis_mask"
    value {
      i: 0
    }
  }
  attr {
    key: "end_mask"
    value {
      i: 1
    }
  }
  attr {
    key: "new_axis_mask"
    value {
      i: 0
    }
  }
  attr {
    key: "shrink_axis_mask"
    value {
      i: 2
    }
  }
}
node {
  name: "wide_logits/wide_model/embedding_lookup_sparse/Cast"
  op: "Cast"
  input: "wide_logits/wide_model/embedding_lookup_sparse/strided_slice"
  device: "/device:GPU:1"
  attr {
    key: "DstT"
    value {
      type: DT_INT32
    }
  }
  attr {
    key: "SrcT"
    value {
      type: DT_INT64
    }
  }
}
node {
  name: "wide_logits/wide_model/embedding_lookup_sparse/Unique"
  op: "Unique"
  input: "wide_logits/wide_process/SparseConcat:1"
  device: "/device:GPU:1"
  attr {
    key: "T"
    value {
      type: DT_INT64
    }
  }
  attr {
    key: "out_idx"
    value {
      type: DT_INT32
    }
  }
}
node {
  name: "wide_logits/wide_model/embedding_lookup_sparse/embedding_lookup"
  op: "Gather"
  input: "wide_logits/wide_model/Variable/read"
  input: "wide_logits/wide_model/embedding_lookup_sparse/Unique"
  device: "/device:GPU:1"
  attr {
    key: "Tindices"
    value {
      type: DT_INT64
    }
  }
  attr {
    key: "Tparams"
    value {
      type: DT_FLOAT
    }
  }
  attr {
    key: "_class"
    value {
      list {
        s: "loc:@wide_logits/wide_model/Variable"
      }
    }
  }
  attr {
    key: "validate_indices"
    value {
      b: true
    }
  }
}
node {
  name: "wide_logits/wide_model/embedding_lookup_sparse"
  op: "SparseSegmentSum"
  input: "wide_logits/wide_model/embedding_lookup_sparse/embedding_lookup"
  input: "wide_logits/wide_model/embedding_lookup_sparse/Unique:1"
  input: "wide_logits/wide_model/embedding_lookup_sparse/Cast"
  device: "/device:GPU:1"
  attr {
    key: "T"
    value {
      type: DT_FLOAT
    }
  }
  attr {
    key: "Tidx"
    value {
      type: DT_INT32
    }
  }
}
node {
  name: "wide_logits/wide_model/add"
  op: "Add"
  input: "wide_logits/wide_model/embedding_lookup_sparse"
  input: "wide_logits/wide_model/Variable_1/read"
  device: "/device:GPU:1"
  attr {
    key: "T"
    value {
      type: DT_FLOAT
    }
  }
}
node {
  name: "wide_logits/wide_model/zero_fraction/zero"
  op: "Const"
  device: "/device:GPU:1"
  attr {
    key: "dtype"
    value {
      type: DT_FLOAT
    }
  }
  attr {
    key: "value"
    value {
      tensor {
        dtype: DT_FLOAT
        tensor_shape {
        }
        float_val: 0.0
      }
    }
  }
}
node {
  name: "wide_logits/wide_model/zero_fraction/Equal"
  op: "Equal"
  input: "wide_logits/wide_model/add"
  input: "wide_logits/wide_model/zero_fraction/zero"
  device: "/device:GPU:1"
  attr {
    key: "T"
    value {
      type: DT_FLOAT
    }
  }
}
node {
  name: "wide_logits/wide_model/zero_fraction/Cast"
  op: "Cast"
  input: "wide_logits/wide_model/zero_fraction/Equal"
  device: "/device:GPU:1"
  attr {
    key: "DstT"
    value {
      type: DT_FLOAT
    }
  }
  attr {
    key: "SrcT"
    value {
      type: DT_BOOL
    }
  }
}
node {
  name: "wide_logits/wide_model/zero_fraction/Const"
  op: "Const"
  device: "/device:GPU:1"
  attr {
    key: "dtype"
    value {
      type: DT_INT32
    }
  }
  attr {
    key: "value"
    value {
      tensor {
        dtype: DT_INT32
        tensor_shape {
          dim {
            size: 1
          }
        }
        int_val: 0
      }
    }
  }
}
node {
  name: "wide_logits/wide_model/zero_fraction/Mean"
  op: "Mean"
  input: "wide_logits/wide_model/zero_fraction/Cast"
  input: "wide_logits/wide_model/zero_fraction/Const"
  device: "/device:GPU:1"
  attr {
    key: "T"
    value {
      type: DT_FLOAT
    }
  }
  attr {
    key: "Tidx"
    value {
      type: DT_INT32
    }
  }
  attr {
    key: "keep_dims"
    value {
      b: false
    }
  }
}
node {
  name: "wide_logits/wide_model/wide_model/fraction_of_zero_values/tags"
  op: "Const"
  device: "/device:GPU:1"
  attr {
    key: "dtype"
    value {
      type: DT_STRING
    }
  }
  attr {
    key: "value"
    value {
      tensor {
        dtype: DT_STRING
        tensor_shape {
        }
        string_val: "wide_logits/wide_model/wide_model/fraction_of_zero_values"
      }
    }
  }
}
node {
  name: "wide_logits/wide_model/wide_model/fraction_of_zero_values"
  op: "ScalarSummary"
  input: "wide_logits/wide_model/wide_model/fraction_of_zero_values/tags"
  input: "wide_logits/wide_model/zero_fraction/Mean"
  device: "/device:GPU:1"
  attr {
    key: "T"
    value {
      type: DT_FLOAT
    }
  }
}
node {
  name: "wide_logits/wide_model/wide_model/activation/tag"
  op: "Const"
  device: "/device:GPU:1"
  attr {
    key: "dtype"
    value {
      type: DT_STRING
    }
  }
  attr {
    key: "value"
    value {
      tensor {
        dtype: DT_STRING
        tensor_shape {
        }
        string_val: "wide_logits/wide_model/wide_model/activation"
      }
    }
  }
}
node {
  name: "wide_logits/wide_model/wide_model/activation"
  op: "HistogramSummary"
  input: "wide_logits/wide_model/wide_model/activation/tag"
  input: "wide_logits/wide_model/add"
  device: "/device:GPU:1"
  attr {
    key: "T"
    value {
      type: DT_FLOAT
    }
  }
}
node {
  name: "wide_logits/Reshape/shape"
  op: "Const"
  device: "/device:GPU:1"
  attr {
    key: "dtype"
    value {
      type: DT_INT32
    }
  }
  attr {
    key: "value"
    value {
      tensor {
        dtype: DT_INT32
        tensor_shape {
          dim {
            size: 2
          }
        }
        tensor_content: "\377\377\377\377\001\000\000\000"
      }
    }
  }
}
node {
  name: "wide_logits/Reshape"
  op: "Reshape"
  input: "wide_logits/wide_model/add"
  input: "wide_logits/Reshape/shape"
  device: "/device:GPU:1"
  attr {
    key: "T"
    value {
      type: DT_FLOAT
    }
  }
  attr {
    key: "Tshape"
    value {
      type: DT_INT32
    }
  }
}
node {
  name: "wide_logits/tag"
  op: "Const"
  attr {
    key: "dtype"
    value {
      type: DT_STRING
    }
  }
  attr {
    key: "value"
    value {
      tensor {
        dtype: DT_STRING
        tensor_shape {
        }
        string_val: "wide_logits"
      }
    }
  }
}
node {
  name: "wide_logits"
  op: "HistogramSummary"
  input: "wide_logits/tag"
  input: "wide_logits/Reshape"
  attr {
    key: "T"
    value {
      type: DT_FLOAT
    }
  }
}
node {
  name: "Add"
  op: "Add"
  input: "deep_logits/deep_model/dnn_logits/dense/BiasAdd"
  input: "wide_logits/Reshape"
  device: "/device:CPU:0"
  attr {
    key: "T"
    value {
      type: DT_FLOAT
    }
  }
}
node {
  name: "logits/tag"
  op: "Const"
  device: "/device:CPU:0"
  attr {
    key: "dtype"
    value {
      type: DT_STRING
    }
  }
  attr {
    key: "value"
    value {
      tensor {
        dtype: DT_STRING
        tensor_shape {
        }
        string_val: "logits"
      }
    }
  }
}
node {
  name: "logits"
  op: "HistogramSummary"
  input: "logits/tag"
  input: "Add"
  device: "/device:CPU:0"
  attr {
    key: "T"
    value {
      type: DT_FLOAT
    }
  }
}
node {
  name: "prediction"
  op: "Sigmoid"
  input: "Add"
  device: "/device:CPU:0"
  attr {
    key: "T"
    value {
      type: DT_FLOAT
    }
  }
}
node {
  name: "predictions/tag"
  op: "Const"
  device: "/device:CPU:0"
  attr {
    key: "dtype"
    value {
      type: DT_STRING
    }
  }
  attr {
    key: "value"
    value {
      tensor {
        dtype: DT_STRING
        tensor_shape {
        }
        string_val: "predictions"
      }
    }
  }
}
node {
  name: "predictions"
  op: "HistogramSummary"
  input: "predictions/tag"
  input: "prediction"
  device: "/device:CPU:0"
  attr {
    key: "T"
    value {
      type: DT_FLOAT
    }
  }
}
node {
  name: "StringToNumber"
  op: "StringToNumber"
  input: "INPUT/label"
  device: "/device:CPU:0"
  attr {
    key: "out_type"
    value {
      type: DT_INT32
    }
  }
}
node {
  name: "Reshape/shape"
  op: "Const"
  device: "/device:CPU:0"
  attr {
    key: "dtype"
    value {
      type: DT_INT32
    }
  }
  attr {
    key: "value"
    value {
      tensor {
        dtype: DT_INT32
        tensor_shape {
          dim {
            size: 2
          }
        }
        tensor_content: "\377\377\377\377\001\000\000\000"
      }
    }
  }
}
node {
  name: "Reshape"
  op: "Reshape"
  input: "StringToNumber"
  input: "Reshape/shape"
  device: "/device:CPU:0"
  attr {
    key: "T"
    value {
      type: DT_INT32
    }
  }
  attr {
…
        string_val: "deep_model/dnn_logits/dense/kernel"
        string_val: "deep_model/dnn_logits/dense/kernel/Adagrad"
        string_val: "wide_logits/wide_model/Variable"
        string_val: "wide_logits/wide_model/Variable/Ftrl"
        string_val: "wide_logits/wide_model/Variable/Ftrl_1"
        string_val: "wide_logits/wide_model/Variable_1"
        string_val: "wide_logits/wide_model/Variable_1/Ftrl"
        string_val: "wide_logits/wide_model/Variable_1/Ftrl_1"
      }
    }
  }
}
node {
  name: "save/SaveV2/shape_and_slices"
  op: "Const"
  attr {
    key: "dtype"
    value {
      type: DT_STRING
    }
  }
  attr {
    key: "value"
    value {
      tensor {
        dtype: DT_STRING
        tensor_shape {
          dim {
            size: 28
          }
        }
        string_val: ""
        string_val: ""
        string_val: ""
        string_val: ""
        string_val: ""
        string_val: ""
        string_val: ""
        string_val: ""
        string_val: ""
        string_val: ""
        string_val: ""
        string_val: ""
        string_val: ""
        string_val: ""
        string_val: ""
        string_val: ""
        string_val: ""
        string_val: ""
        string_val: ""
        string_val: ""
        string_val: ""
        string_val: ""
        string_val: ""
        string_val: ""
        string_val: ""
        string_val: ""
        string_val: ""
        string_val: ""
      }
    }
  }
}
node {
  name: "save/SaveV2"
  op: "SaveV2"
  input: "save/Const"
  input: "save/SaveV2/tensor_names"
  input: "save/SaveV2/shape_and_slices"
  input: "deep_logits/multiEmbedding/embedding/embeddingemb"
  input: "deep_logits/multiEmbedding/embedding/embeddingemb/Adagrad"
  input: "deep_logits/multiEmbedding/embedding_1/embeddingemb"
  input: "deep_logits/multiEmbedding/embedding_1/embeddingemb/Adagrad"
  input: "deep_logits/multiEmbedding/embedding_2/embeddingemb"
  input: "deep_logits/multiEmbedding/embedding_2/embeddingemb/Adagrad"
  input: "deep_model/dnn_hidden_1/dense/bias"
  input: "deep_model/dnn_hidden_1/dense/bias/Adagrad"
  input: "deep_model/dnn_hidden_1/dense/kernel"
  input: "deep_model/dnn_hidden_1/dense/kernel/Adagrad"
  input: "deep_model/dnn_hidden_2/dense/bias"
  input: "deep_model/dnn_hidden_2/dense/bias/Adagrad"
  input: "deep_model/dnn_hidden_2/dense/kernel"
  input: "deep_model/dnn_hidden_2/dense/kernel/Adagrad"
  input: "deep_model/dnn_hidden_3/dense/bias"
  input: "deep_model/dnn_hidden_3/dense/bias/Adagrad"
  input: "deep_model/dnn_hidden_3/dense/kernel"
  input: "deep_model/dnn_hidden_3/dense/kernel/Adagrad"
  input: "deep_model/dnn_logits/dense/bias"
  input: "deep_model/dnn_logits/dense/bias/Adagrad"
  input: "deep_model/dnn_logits/dense/kernel"
  input: "deep_model/dnn_logits/dense/kernel/Adagrad"
  input: "wide_logits/wide_model/Variable"
  input: "wide_logits/wide_model/Variable/Ftrl"
  input: "wide_logits/wide_model/Variable/Ftrl_1"
  input: "wide_logits/wide_model/Variable_1"
  input: "wide_logits/wide_model/Variable_1/Ftrl"
  input: "wide_logits/wide_model/Variable_1/Ftrl_1"
  attr {
    key: "dtypes"
    value {
      list {
        type: DT_FLOAT
        type: DT_FLOAT
        type: DT_FLOAT
        type: DT_FLOAT
        type: DT_FLOAT
        type: DT_FLOAT
        type: DT_FLOAT
        type: DT_FLOAT
        type: DT_FLOAT
        type: DT_FLOAT
        type: DT_FLOAT
        type: DT_FLOAT
        type: DT_FLOAT
        type: DT_FLOAT
        type: DT_FLOAT
        type: DT_FLOAT
        type: DT_FLOAT
        type: DT_FLOAT
        type: DT_FLOAT
        type: DT_FLOAT
        type: DT_FLOAT
        type: DT_FLOAT
        type: DT_FLOAT
        type: DT_FLOAT
        type: DT_FLOAT
        type: DT_FLOAT
        type: DT_FLOAT
        type: DT_FLOAT
      }
    }
  }
}
node {
  name: "save/control_dependency"
  op: "Identity"
  input: "save/Const"
  input: "^save/SaveV2"
  attr {
    key: "T"
    value {
      type: DT_STRING
    }
  }
  attr {
    key: "_class"
    value {
      list {
        s: "loc:@save/Const"
      }
    }
  }
}
node {
  name: "save/RestoreV2/tensor_names"
  op: "Const"
  device: "/device:CPU:0"
  attr {
    key: "dtype"
    value {
      type: DT_STRING
    }
  }
  attr {
    key: "value"
    value {
      tensor {
        dtype: DT_STRING
        tensor_shape {
          dim {
            size: 1
          }
        }
        string_val: "deep_logits/multiEmbedding/embedding/embeddingemb"
      }
    }
  }
}
node {
  name: "save/RestoreV2/shape_and_slices"
  op: "Const"
  device: "/device:CPU:0"
  attr {
    key: "dtype"
    value {
      type: DT_STRING
    }
  }
  attr {
    key: "value"
    value {
      tensor {
        dtype: DT_STRING
        tensor_shape {
          dim {
            size: 1
          }
        }
        string_val: ""
      }
    }
  }
}
node {
  name: "save/RestoreV2"
  op: "RestoreV2"
  input: "save/Const"
  input: "save/RestoreV2/tensor_names"
  input: "save/RestoreV2/shape_and_slices"
  device: "/device:CPU:0"
  attr {
    key: "dtypes"
    value {
      list {
        type: DT_FLOAT
      }
    }
  }
}
node {
  name: "save/Assign"
  op: "Assign"
  input: "deep_logits/multiEmbedding/embedding/embeddingemb"
  input: "save/RestoreV2"
  device: "/device:GPU:0"
  attr {
    key: "T"
    value {
      type: DT_FLOAT
    }
  }
  attr {
    key: "_class"
    value {
      list {
        s: "loc:@deep_logits/multiEmbedding/embedding/embeddingemb"
      }
    }
  }
  attr {
    key: "use_locking"
    value {
      b: true
    }
  }
  attr {
    key: "validate_shape"
    value {
      b: true
    }
  }
}
node {
  name: "save/RestoreV2_1/tensor_names"
  op: "Const"
  device: "/device:CPU:0"
  attr {
    key: "dtype"
    value {
      type: DT_STRING
    }
  }
  attr {
    key: "value"
    value {
      tensor {
        dtype: DT_STRING
        tensor_shape {
          dim {
            size: 1
          }
        }
        string_val: "deep_logits/multiEmbedding/embedding/embeddingemb/Adagrad"
      }
    }
  }
}
node {
  name: "save/RestoreV2_1/shape_and_slices"
  op: "Const"
  device: "/device:CPU:0"
  attr {
    key: "dtype"
    value {
      type: DT_STRING
    }
  }
  attr {
    key: "value"
    value {
      tensor {
        dtype: DT_STRING
        tensor_shape {
          dim {
            size: 1
          }
        }
        string_val: ""
      }
    }
  }
}
node {
  name: "save/RestoreV2_1"
  op: "RestoreV2"
  input: "save/Const"
  input: "save/RestoreV2_1/tensor_names"
  input: "save/RestoreV2_1/shape_and_slices"
  device: "/device:CPU:0"
  attr {
    key: "dtypes"
    value {
      list {
        type: DT_FLOAT
      }
    }
  }
}
node {
  name: "save/Assign_1"
  op: "Assign"
  input: "deep_logits/multiEmbedding/embedding/embeddingemb/Adagrad"
  input: "save/RestoreV2_1"
  device: "/device:GPU:0"
  attr {
    key: "T"
    value {
      type: DT_FLOAT
    }
  }
  attr {
    key: "_class"
    value {
      list {
        s: "loc:@deep_logits/multiEmbedding/embedding/embeddingemb"
      }
    }
  }
  attr {
    key: "use_locking"
    value {
      b: true
    }
  }
  attr {
    key: "validate_shape"
    value {
      b: true
    }
  }
}
node {
  name: "save/RestoreV2_2/tensor_names"
  op: "Const"
  device: "/device:CPU:0"
  attr {
    key: "dtype"
    value {
      type: DT_STRING
    }
  }
  attr {
    key: "value"
    value {
      tensor {
        dtype: DT_STRING
        tensor_shape {
          dim {
            size: 1
          }
        }
        string_val: "deep_logits/multiEmbedding/embedding_1/embeddingemb"
      }
    }
  }
}
node {
  name: "save/RestoreV2_2/shape_and_slices"
  op: "Const"
  device: "/device:CPU:0"
  attr {
    key: "dtype"
    value {
      type: DT_STRING
    }
  }
  attr {
    key: "value"
    value {
      tensor {
        dtype: DT_STRING
        tensor_shape {
          dim {
            size: 1
          }
        }
        string_val: ""
      }
    }
  }
}
node {
  name: "save/RestoreV2_2"
  op: "RestoreV2"
  input: "save/Const"
  input: "save/RestoreV2_2/tensor_names"
  input: "save/RestoreV2_2/shape_and_slices"
  device: "/device:CPU:0"
  attr {
    key: "dtypes"
    value {
      list {
        type: DT_FLOAT
      }
    }
  }
}
node {
  name: "save/Assign_2"
  op: "Assign"
  input: "deep_logits/multiEmbedding/embedding_1/embeddingemb"
  input: "save/RestoreV2_2"
  device: "/device:GPU:0"
  attr {
    key: "T"
    value {
      type: DT_FLOAT
    }
  }
  attr {
    key: "_class"
    value {
      list {
        s: "loc:@deep_logits/multiEmbedding/embedding_1/embeddingemb"
      }
    }
  }
  attr {
    key: "use_locking"
    value {
      b: true
    }
  }
  attr {
    key: "validate_shape"
    value {
      b: true
    }
  }
}
node {
  name: "save/RestoreV2_3/tensor_names"
  op: "Const"
  device: "/device:CPU:0"
  attr {
    key: "dtype"
    value {
      type: DT_STRING
    }
  }
  attr {
    key: "value"
    value {
      tensor {
        dtype: DT_STRING
        tensor_shape {
          dim {
            size: 1
          }
        }
        string_val: "deep_logits/multiEmbedding/embedding_1/embeddingemb/Adagrad"
      }
    }
  }
}
node {
  name: "save/RestoreV2_3/shape_and_slices"
  op: "Const"
  device: "/device:CPU:0"
  attr {
    key: "dtype"
    value {
      type: DT_STRING
    }
  }
  attr {
    key: "value"
    value {
      tensor {
        dtype: DT_STRING
        tensor_shape {
          dim {
            size: 1
          }
        }
        string_val: ""
      }
    }
  }
}
node {
  name: "save/RestoreV2_3"
  op: "RestoreV2"
  input: "save/Const"
  input: "save/RestoreV2_3/tensor_names"
  input: "save/RestoreV2_3/shape_and_slices"
  device: "/device:CPU:0"
  attr {
    key: "dtypes"
    value {
      list {
        type: DT_FLOAT
      }
    }
  }
}
node {
  name: "save/Assign_3"
  op: "Assign"
  input: "deep_logits/multiEmbedding/embedding_1/embeddingemb/Adagrad"
  input: "save/RestoreV2_3"
  device: "/device:GPU:0"
  attr {
    key: "T"
    value {
      type: DT_FLOAT
    }
  }
  attr {
    key: "_class"
    value {
      list {
        s: "loc:@deep_logits/multiEmbedding/embedding_1/embeddingemb"
      }
    }
  }
  attr {
    key: "use_locking"
    value {
      b: true
    }
  }
  attr {
    key: "validate_shape"
    value {
      b: true
    }
  }
}
node {
  name: "save/RestoreV2_4/tensor_names"
  op: "Const"
  device: "/device:CPU:0"
  attr {
    key: "dtype"
    value {
      type: DT_STRING
    }
  }
  attr {
    key: "value"
    value {
      tensor {
        dtype: DT_STRING
        tensor_shape {
          dim {
            size: 1
          }
        }
        string_val: "deep_logits/multiEmbedding/embedding_2/embeddingemb"
      }
    }
  }
}
node {
  name: "save/RestoreV2_4/shape_and_slices"
  op: "Const"
  device: "/device:CPU:0"
  attr {
    key: "dtype"
    value {
      type: DT_STRING
    }
  }
  attr {
    key: "value"
    value {
      tensor {
        dtype: DT_STRING
        tensor_shape {
          dim {
            size: 1
          }
        }
        string_val: ""
      }
    }
  }
}
node {
  name: "save/RestoreV2_4"
  op: "RestoreV2"
  input: "save/Const"
  input: "save/RestoreV2_4/tensor_names"
  input: "save/RestoreV2_4/shape_and_slices"
  device: "/device:CPU:0"
  attr {
    key: "dtypes"
    value {
      list {
        type: DT_FLOAT
      }
    }
  }
}
node {
  name: "save/Assign_4"
  op: "Assign"
  input: "deep_logits/multiEmbedding/embedding_2/embeddingemb"
  input: "save/RestoreV2_4"
  device: "/device:GPU:0"
  attr {
    key: "T"
    value {
      type: DT_FLOAT
    }
  }
  attr {
    key: "_class"
    value {
      list {
        s: "loc:@deep_logits/multiEmbedding/embedding_2/embeddingemb"
      }
    }
  }
  attr {
    key: "use_locking"
    value {
      b: true
    }
  }
  attr {
    key: "validate_shape"
    value {
      b: true
    }
  }
}
node {
  name: "save/RestoreV2_5/tensor_names"
  op: "Const"
  device: "/device:CPU:0"
  attr {
    key: "dtype"
    value {
      type: DT_STRING
    }
  }
  attr {
    key: "value"
    value {
      tensor {
        dtype: DT_STRING
        tensor_shape {
          dim {
            size: 1
          }
        }
        string_val: "deep_logits/multiEmbedding/embedding_2/embeddingemb/Adagrad"
      }
    }
  }
}
node {
  name: "save/RestoreV2_5/shape_and_slices"
  op: "Const"
  device: "/device:CPU:0"
  attr {
    key: "dtype"
    value {
      type: DT_STRING
    }
  }
  attr {
    key: "value"
    value {
      tensor {
        dtype: DT_STRING
        tensor_shape {
          dim {
            size: 1
          }
        }
        string_val: ""
      }
    }
  }
}
node {
  name: "save/RestoreV2_5"
  op: "RestoreV2"
  input: "save/Const"
  input: "save/RestoreV2_5/tensor_names"
  input: "save/RestoreV2_5/shape_and_slices"
  device: "/device:CPU:0"
  attr {
    key: "dtypes"
    value {
      list {
        type: DT_FLOAT
      }
    }
  }
}
node {
  name: "save/Assign_5"
  op: "Assign"
  input: "deep_logits/multiEmbedding/embedding_2/embeddingemb/Adagrad"
  input: "save/RestoreV2_5"
  device: "/device:GPU:0"
  attr {
    key: "T"
    value {
      type: DT_FLOAT
    }
  }
  attr {
    key: "_class"
    value {
      list {
        s: "loc:@deep_logits/multiEmbedding/embedding_2/embeddingemb"
      }
    }
  }
  attr {
    key: "use_locking"
    value {
      b: true
    }
  }
  attr {
    key: "validate_shape"
    value {
      b: true
    }
  }
}
node {
  name: "save/RestoreV2_6/tensor_names"
  op: "Const"
  device: "/device:CPU:0"
  attr {
    key: "dtype"
    value {
      type: DT_STRING
    }
  }
  attr {
    key: "value"
    value {
      tensor {
        dtype: DT_STRING
        tensor_shape {
          dim {
            size: 1
          }
        }
        string_val: "deep_model/dnn_hidden_1/dense/bias"
      }
    }
  }
}
node {
  name: "save/RestoreV2_6/shape_and_slices"
  op: "Const"
  device: "/device:CPU:0"
  attr {
    key: "dtype"
    value {
      type: DT_STRING
    }
  }
  attr {
    key: "value"
    value {
      tensor {
        dtype: DT_STRING
        tensor_shape {
          dim {
            size: 1
          }
        }
        string_val: ""
      }
    }
  }
}
node {
  name: "save/RestoreV2_6"
  op: "RestoreV2"
  input: "save/Const"
  input: "save/RestoreV2_6/tensor_names"
  input: "save/RestoreV2_6/shape_and_slices"
  device: "/device:CPU:0"
  attr {
    key: "dtypes"
    value {
      list {
        type: DT_FLOAT
      }
    }
  }
}
node {
  name: "save/Assign_6"
  op: "Assign"
  input: "deep_model/dnn_hidden_1/dense/bias"
  input: "save/RestoreV2_6"
  device: "/device:GPU:0"
  attr {
    key: "T"
    value {
      type: DT_FLOAT
    }
  }
  attr {
    key: "_class"
    value {
      list {
        s: "loc:@deep_model/dnn_hidden_1/dense/bias"
      }
    }
  }
  attr {
    key: "use_locking"
    value {
      b: true
    }
  }
  attr {
    key: "validate_shape"
    value {
      b: true
    }
  }
}
node {
  name: "save/RestoreV2_7/tensor_names"
  op: "Const"
  device: "/device:CPU:0"
  attr {
    key: "dtype"
    value {
      type: DT_STRING
    }
  }
  attr {
    key: "value"
    value {
      tensor {
        dtype: DT_STRING
        tensor_shape {
          dim {
            size: 1
          }
        }
        string_val: "deep_model/dnn_hidden_1/dense/bias/Adagrad"
      }
    }
  }
}
node {
  name: "save/RestoreV2_7/shape_and_slices"
  op: "Const"
  device: "/device:CPU:0"
  attr {
    key: "dtype"
    value {
      type: DT_STRING
    }
  }
  attr {
    key: "value"
    value {
      tensor {
        dtype: DT_STRING
        tensor_shape {
          dim {
            size: 1
          }
        }
        string_val: ""
      }
    }
  }
}
node {
  name: "save/RestoreV2_7"
  op: "RestoreV2"
  input: "save/Const"
  input: "save/RestoreV2_7/tensor_names"
  input: "save/RestoreV2_7/shape_and_slices"
  device: "/device:CPU:0"
  attr {
    key: "dtypes"
    value {
      list {
        type: DT_FLOAT
      }
    }
  }
}
node {
  name: "save/Assign_7"
  op: "Assign"
  input: "deep_model/dnn_hidden_1/dense/bias/Adagrad"
  input: "save/RestoreV2_7"
  device: "/device:GPU:0"
  attr {
    key: "T"
    value {
      type: DT_FLOAT
    }
  }
  attr {
    key: "_class"
    value {
      list {
        s: "loc:@deep_model/dnn_hidden_1/dense/bias"
      }
    }
  }
  attr {
    key: "use_locking"
    value {
      b: true
    }
  }
  attr {
    key: "validate_shape"
    value {
      b: true
    }
  }
}
node {
  name: "save/RestoreV2_8/tensor_names"
  op: "Const"
  device: "/device:CPU:0"
  attr {
    key: "dtype"
    value {
      type: DT_STRING
    }
  }
  attr {
    key: "value"
    value {
      tensor {
        dtype: DT_STRING
        tensor_shape {
          dim {
            size: 1
          }
        }
        string_val: "deep_model/dnn_hidden_1/dense/kernel"
      }
    }
  }
}
node {
  name: "save/RestoreV2_8/shape_and_slices"
  op: "Const"
  device: "/device:CPU:0"
  attr {
    key: "dtype"
    value {
      type: DT_STRING
    }
  }
  attr {
    key: "value"
    value {
      tensor {
        dtype: DT_STRING
        tensor_shape {
          dim {
            size: 1
          }
        }
        string_val: ""
      }
    }
  }
}
node {
  name: "save/RestoreV2_8"
  op: "RestoreV2"
  input: "save/Const"
  input: "save/RestoreV2_8/tensor_names"
  input: "save/RestoreV2_8/shape_and_slices"
  device: "/device:CPU:0"
  attr {
    key: "dtypes"
    value {
      list {
        type: DT_FLOAT
      }
    }
  }
}
node {
  name: "save/Assign_8"
  op: "Assign"
  input: "deep_model/dnn_hidden_1/dense/kernel"
  input: "save/RestoreV2_8"
  device: "/device:GPU:0"
  attr {
    key: "T"
    value {
      type: DT_FLOAT
    }
  }
  attr {
    key: "_class"
    value {
      list {
        s: "loc:@deep_model/dnn_hidden_1/dense/kernel"
      }
    }
  }
  attr {
    key: "use_locking"
    value {
      b: true
    }
  }
  attr {
    key: "validate_shape"
    value {
      b: true
    }
  }
}
node {
  name: "save/RestoreV2_9/tensor_names"
  op: "Const"
  device: "/device:CPU:0"
  attr {
    key: "dtype"
    value {
      type: DT_STRING
    }
  }
  attr {
    key: "value"
    value {
      tensor {
        dtype: DT_STRING
        tensor_shape {
          dim {
            size: 1
          }
        }
        string_val: "deep_model/dnn_hidden_1/dense/kernel/Adagrad"
      }
    }
  }
}
node {
  name: "save/RestoreV2_9/shape_and_slices"
  op: "Const"
  device: "/device:CPU:0"
  attr {
    key: "dtype"
    value {
      type: DT_STRING
    }
  }
  attr {
    key: "value"
    value {
      tensor {
        dtype: DT_STRING
        tensor_shape {
          dim {
            size: 1
          }
        }
        string_val: ""
      }
    }
  }
}
node {
  name: "save/RestoreV2_9"
  op: "RestoreV2"
  input: "save/Const"
  input: "save/RestoreV2_9/tensor_names"
  input: "save/RestoreV2_9/shape_and_slices"
  device: "/device:CPU:0"
  attr {
    key: "dtypes"
    value {
      list {
        type: DT_FLOAT
      }
    }
  }
}
node {
  name: "save/Assign_9"
  op: "Assign"
  input: "deep_model/dnn_hidden_1/dense/kernel/Adagrad"
  input: "save/RestoreV2_9"
  device: "/device:GPU:0"
  attr {
    key: "T"
    value {
      type: DT_FLOAT
    }
  }
  attr {
    key: "_class"
    value {
      list {
        s: "loc:@deep_model/dnn_hidden_1/dense/kernel"
      }
    }
  }
  attr {
    key: "use_locking"
    value {
      b: true
    }
  }
  attr {
    key: "validate_shape"
    value {
      b: true
    }
  }
}
node {
  name: "save/RestoreV2_10/tensor_names"
  op: "Const"
  device: "/device:CPU:0"
  attr {
    key: "dtype"
    value {
      type: DT_STRING
    }
  }
  attr {
    key: "value"
    value {
      tensor {
        dtype: DT_STRING
        tensor_shape {
          dim {
            size: 1
          }
        }
        string_val: "deep_model/dnn_hidden_2/dense/bias"
      }
    }
  }
}
node {
  name: "save/RestoreV2_10/shape_and_slices"
  op: "Const"
  device: "/device:CPU:0"
  attr {
    key: "dtype"
    value {
      type: DT_STRING
    }
  }
  attr {
    key: "value"
    value {
      tensor {
        dtype: DT_STRING
        tensor_shape {
          dim {
            size: 1
          }
        }
        string_val: ""
      }
    }
  }
}
node {
  name: "save/RestoreV2_10"
  op: "RestoreV2"
  input: "save/Const"
  input: "save/RestoreV2_10/tensor_names"
  input: "save/RestoreV2_10/shape_and_slices"
  device: "/device:CPU:0"
  attr {
    key: "dtypes"
    value {
      list {
        type: DT_FLOAT
      }
    }
  }
}
node {
  name: "save/Assign_10"
  op: "Assign"
  input: "deep_model/dnn_hidden_2/dense/bias"
  input: "save/RestoreV2_10"
  device: "/device:GPU:0"
  attr {
    key: "T"
    value {
      type: DT_FLOAT
    }
  }
  attr {
    key: "_class"
    value {
      list {
        s: "loc:@deep_model/dnn_hidden_2/dense/bias"
      }
    }
  }
  attr {
    key: "use_locking"
    value {
      b: true
    }
  }
  attr {
    key: "validate_shape"
    value {
      b: true
    }
  }
}
node {
  name: "save/RestoreV2_11/tensor_names"
  op: "Const"
  device: "/device:CPU:0"
  attr {
    key: "dtype"
    value {
      type: DT_STRING
    }
  }
  attr {
    key: "value"
    value {
      tensor {
        dtype: DT_STRING
        tensor_shape {
          dim {
            size: 1
          }
        }
        string_val: "deep_model/dnn_hidden_2/dense/bias/Adagrad"
      }
    }
  }
}
node {
  name: "save/RestoreV2_11/shape_and_slices"
  op: "Const"
  device: "/device:CPU:0"
  attr {
    key: "dtype"
    value {
      type: DT_STRING
    }
  }
  attr {
    key: "value"
    value {
      tensor {
        dtype: DT_STRING
        tensor_shape {
          dim {
            size: 1
          }
        }
        string_val: ""
      }
    }
  }
}
node {
  name: "save/RestoreV2_11"
  op: "RestoreV2"
  input: "save/Const"
  input: "save/RestoreV2_11/tensor_names"
  input: "save/RestoreV2_11/shape_and_slices"
  device: "/device:CPU:0"
  attr {
    key: "dtypes"
    value {
      list {
        type: DT_FLOAT
      }
    }
  }
}
node {
  name: "save/Assign_11"
  op: "Assign"
  input: "deep_model/dnn_hidden_2/dense/bias/Adagrad"
  input: "save/RestoreV2_11"
  device: "/device:GPU:0"
  attr {
    key: "T"
    value {
      type: DT_FLOAT
    }
  }
  attr {
    key: "_class"
    value {
      list {
        s: "loc:@deep_model/dnn_hidden_2/dense/bias"
      }
    }
  }
  attr {
    key: "use_locking"
    value {
      b: true
    }
  }
  attr {
    key: "validate_shape"
    value {
      b: true
    }
  }
}
node {
  name: "save/RestoreV2_12/tensor_names"
  op: "Const"
  device: "/device:CPU:0"
  attr {
    key: "dtype"
    value {
      type: DT_STRING
    }
  }
  attr {
    key: "value"
    value {
      tensor {
        dtype: DT_STRING
        tensor_shape {
          dim {
            size: 1
          }
        }
        string_val: "deep_model/dnn_hidden_2/dense/kernel"
      }
    }
  }
}
node {
  name: "save/RestoreV2_12/shape_and_slices"
  op: "Const"
  device: "/device:CPU:0"
  attr {
    key: "dtype"
    value {
      type: DT_STRING
    }
  }
  attr {
    key: "value"
    value {
      tensor {
        dtype: DT_STRING
        tensor_shape {
          dim {
            size: 1
          }
        }
        string_val: ""
      }
    }
  }
}
node {
  name: "save/RestoreV2_12"
  op: "RestoreV2"
  input: "save/Const"
  input: "save/RestoreV2_12/tensor_names"
  input: "save/RestoreV2_12/shape_and_slices"
  device: "/device:CPU:0"
  attr {
    key: "dtypes"
    value {
      list {
        type: DT_FLOAT
      }
    }
  }
}
node {
  name: "save/Assign_12"
  op: "Assign"
  input: "deep_model/dnn_hidden_2/dense/kernel"
  input: "save/RestoreV2_12"
  device: "/device:GPU:0"
  attr {
    key: "T"
    value {
      type: DT_FLOAT
    }
  }
  attr {
    key: "_class"
    value {
      list {
        s: "loc:@deep_model/dnn_hidden_2/dense/kernel"
      }
    }
  }
  attr {
    key: "use_locking"
    value {
      b: true
    }
  }
  attr {
    key: "validate_shape"
    value {
      b: true
    }
  }
}
node {
  name: "save/RestoreV2_13/tensor_names"
  op: "Const"
  device: "/device:CPU:0"
  attr {
    key: "dtype"
    value {
      type: DT_STRING
    }
  }
  attr {
    key: "value"
    value {
      tensor {
        dtype: DT_STRING
        tensor_shape {
          dim {
            size: 1
          }
        }
        string_val: "deep_model/dnn_hidden_2/dense/kernel/Adagrad"
      }
    }
  }
}
node {
  name: "save/RestoreV2_13/shape_and_slices"
  op: "Const"
  device: "/device:CPU:0"
  attr {
    key: "dtype"
    value {
      type: DT_STRING
    }
  }
  attr {
    key: "value"
    value {
      tensor {
        dtype: DT_STRING
        tensor_shape {
          dim {
            size: 1
          }
        }
        string_val: ""
      }
    }
  }
}
node {
  name: "save/RestoreV2_13"
  op: "RestoreV2"
  input: "save/Const"
  input: "save/RestoreV2_13/tensor_names"
  input: "save/RestoreV2_13/shape_and_slices"
  device: "/device:CPU:0"
  attr {
    key: "dtypes"
    value {
      list {
        type: DT_FLOAT
      }
    }
  }
}
node {
  name: "save/Assign_13"
  op: "Assign"
  input: "deep_model/dnn_hidden_2/dense/kernel/Adagrad"
  input: "save/RestoreV2_13"
  device: "/device:GPU:0"
  attr {
    key: "T"
    value {
      type: DT_FLOAT
    }
  }
  attr {
    key: "_class"
    value {
      list {
        s: "loc:@deep_model/dnn_hidden_2/dense/kernel"
      }
    }
  }
  attr {
    key: "use_locking"
    value {
      b: true
    }
  }
  attr {
    key: "validate_shape"
    value {
      b: true
    }
  }
}
node {
  name: "save/RestoreV2_14/tensor_names"
  op: "Const"
  device: "/device:CPU:0"
  attr {
    key: "dtype"
    value {
      type: DT_STRING
    }
  }
  attr {
    key: "value"
    value {
      tensor {
        dtype: DT_STRING
        tensor_shape {
          dim {
            size: 1
          }
        }
        string_val: "deep_model/dnn_hidden_3/dense/bias"
      }
    }
  }
}
node {
  name: "save/RestoreV2_14/shape_and_slices"
  op: "Const"
  device: "/device:CPU:0"
  attr {
    key: "dtype"
    value {
      type: DT_STRING
    }
  }
  attr {
    key: "value"
    value {
      tensor {
        dtype: DT_STRING
        tensor_shape {
          dim {
            size: 1
          }
        }
        string_val: ""
      }
    }
  }
}
node {
  name: "save/RestoreV2_14"
  op: "RestoreV2"
  input: "save/Const"
  input: "save/RestoreV2_14/tensor_names"
  input: "save/RestoreV2_14/shape_and_slices"
  device: "/device:CPU:0"
  attr {
    key: "dtypes"
    value {
      list {
        type: DT_FLOAT
      }
    }
  }
}
node {
  name: "save/Assign_14"
  op: "Assign"
  input: "deep_model/dnn_hidden_3/dense/bias"
  input: "save/RestoreV2_14"
  device: "/device:GPU:0"
  attr {
    key: "T"
    value {
      type: DT_FLOAT
    }
  }
  attr {
    key: "_class"
    value {
      list {
        s: "loc:@deep_model/dnn_hidden_3/dense/bias"
      }
    }
  }
  attr {
    key: "use_locking"
    value {
      b: true
    }
  }
  attr {
    key: "validate_shape"
    value {
      b: true
    }
  }
}
node {
  name: "save/RestoreV2_15/tensor_names"
  op: "Const"
  device: "/device:CPU:0"
  attr {
    key: "dtype"
    value {
      type: DT_STRING
    }
  }
  attr {
    key: "value"
    value {
      tensor {
        dtype: DT_STRING
        tensor_shape {
          dim {
            size: 1
          }
        }
        string_val: "deep_model/dnn_hidden_3/dense/bias/Adagrad"
      }
    }
  }
}
node {
  name: "save/RestoreV2_15/shape_and_slices"
  op: "Const"
  device: "/device:CPU:0"
  attr {
    key: "dtype"
    value {
      type: DT_STRING
    }
  }
  attr {
    key: "value"
    value {
      tensor {
        dtype: DT_STRING
        tensor_shape {
          dim {
            size: 1
          }
        }
        string_val: ""
      }
    }
  }
}
node {
  name: "save/RestoreV2_15"
  op: "RestoreV2"
  input: "save/Const"
  input: "save/RestoreV2_15/tensor_names"
  input: "save/RestoreV2_15/shape_and_slices"
  device: "/device:CPU:0"
  attr {
    key: "dtypes"
    value {
      list {
        type: DT_FLOAT
      }
    }
  }
}
node {
  name: "save/Assign_15"
  op: "Assign"
  input: "deep_model/dnn_hidden_3/dense/bias/Adagrad"
  input: "save/RestoreV2_15"
  device: "/device:GPU:0"
  attr {
    key: "T"
    value {
      type: DT_FLOAT
    }
  }
  attr {
    key: "_class"
    value {
      list {
        s: "loc:@deep_model/dnn_hidden_3/dense/bias"
      }
    }
  }
  attr {
    key: "use_locking"
    value {
      b: true
    }
  }
  attr {
    key: "validate_shape"
    value {
      b: true
    }
  }
}
node {
  name: "save/RestoreV2_16/tensor_names"
  op: "Const"
  device: "/device:CPU:0"
  attr {
    key: "dtype"
    value {
      type: DT_STRING
    }
  }
  attr {
    key: "value"
    value {
      tensor {
        dtype: DT_STRING
        tensor_shape {
          dim {
            size: 1
          }
        }
        string_val: "deep_model/dnn_hidden_3/dense/kernel"
      }
    }
  }
}
node {
  name: "save/RestoreV2_16/shape_and_slices"
  op: "Const"
  device: "/device:CPU:0"
  attr {
    key: "dtype"
    value {
      type: DT_STRING
    }
  }
  attr {
    key: "value"
    value {
      tensor {
        dtype: DT_STRING
        tensor_shape {
          dim {
            size: 1
          }
        }
        string_val: ""
      }
    }
  }
}
node {
  name: "save/RestoreV2_16"
  op: "RestoreV2"
  input: "save/Const"
  input: "save/RestoreV2_16/tensor_names"
  input: "save/RestoreV2_16/shape_and_slices"
  device: "/device:CPU:0"
  attr {
    key: "dtypes"
    value {
      list {
        type: DT_FLOAT
      }
    }
  }
}
node {
  name: "save/Assign_16"
  op: "Assign"
  input: "deep_model/dnn_hidden_3/dense/kernel"
  input: "save/RestoreV2_16"
  device: "/device:GPU:0"
  attr {
    key: "T"
    value {
      type: DT_FLOAT
    }
  }
  attr {
    key: "_class"
    value {
      list {
        s: "loc:@deep_model/dnn_hidden_3/dense/kernel"
      }
    }
  }
  attr {
    key: "use_locking"
    value {
      b: true
    }
  }
  attr {
    key: "validate_shape"
    value {
      b: true
    }
  }
}
node {
  name: "save/RestoreV2_17/tensor_names"
  op: "Const"
  device: "/device:CPU:0"
  attr {
    key: "dtype"
    value {
      type: DT_STRING
    }
  }
  attr {
    key: "value"
    value {
      tensor {
        dtype: DT_STRING
        tensor_shape {
          dim {
            size: 1
          }
        }
        string_val: "deep_model/dnn_hidden_3/dense/kernel/Adagrad"
      }
    }
  }
}
node {
  name: "save/RestoreV2_17/shape_and_slices"
  op: "Const"
  device: "/device:CPU:0"
  attr {
    key: "dtype"
    value {
      type: DT_STRING
    }
  }
  attr {
    key: "value"
    value {
      tensor {
        dtype: DT_STRING
        tensor_shape {
          dim {
            size: 1
          }
        }
        string_val: ""
      }
    }
  }
}
node {
  name: "save/RestoreV2_17"
  op: "RestoreV2"
  input: "save/Const"
  input: "save/RestoreV2_17/tensor_names"
  input: "save/RestoreV2_17/shape_and_slices"
  device: "/device:CPU:0"
  attr {
    key: "dtypes"
    value {
      list {
        type: DT_FLOAT
      }
    }
  }
}
node {
  name: "save/Assign_17"
  op: "Assign"
  input: "deep_model/dnn_hidden_3/dense/kernel/Adagrad"
  input: "save/RestoreV2_17"
  device: "/device:GPU:0"
  attr {
    key: "T"
    value {
      type: DT_FLOAT
    }
  }
  attr {
    key: "_class"
    value {
      list {
        s: "loc:@deep_model/dnn_hidden_3/dense/kernel"
      }
    }
  }
  attr {
    key: "use_locking"
    value {
      b: true
    }
  }
  attr {
    key: "validate_shape"
    value {
      b: true
    }
  }
}
node {
  name: "save/RestoreV2_18/tensor_names"
  op: "Const"
  device: "/device:CPU:0"
  attr {
    key: "dtype"
    value {
      type: DT_STRING
    }
  }
  attr {
    key: "value"
    value {
      tensor {
        dtype: DT_STRING
        tensor_shape {
          dim {
            size: 1
          }
        }
        string_val: "deep_model/dnn_logits/dense/bias"
      }
    }
  }
}
node {
  name: "save/RestoreV2_18/shape_and_slices"
  op: "Const"
  device: "/device:CPU:0"
  attr {
    key: "dtype"
    value {
      type: DT_STRING
    }
  }
  attr {
    key: "value"
    value {
      tensor {
        dtype: DT_STRING
        tensor_shape {
          dim {
            size: 1
          }
        }
        string_val: ""
      }
    }
  }
}
node {
  name: "save/RestoreV2_18"
  op: "RestoreV2"
  input: "save/Const"
  input: "save/RestoreV2_18/tensor_names"
  input: "save/RestoreV2_18/shape_and_slices"
  device: "/device:CPU:0"
  attr {
    key: "dtypes"
    value {
      list {
        type: DT_FLOAT
      }
    }
  }
}
node {
  name: "save/Assign_18"
  op: "Assign"
  input: "deep_model/dnn_logits/dense/bias"
  input: "save/RestoreV2_18"
  device: "/device:GPU:0"
  attr {
    key: "T"
    value {
      type: DT_FLOAT
    }
  }
  attr {
    key: "_class"
    value {
      list {
        s: "loc:@deep_model/dnn_logits/dense/bias"
      }
    }
  }
  attr {
    key: "use_locking"
    value {
      b: true
    }
  }
  attr {
    key: "validate_shape"
    value {
      b: true
    }
  }
}
node {
  name: "save/RestoreV2_19/tensor_names"
  op: "Const"
  device: "/device:CPU:0"
  attr {
    key: "dtype"
    value {
      type: DT_STRING
    }
  }
  attr {
    key: "value"
    value {
      tensor {
        dtype: DT_STRING
        tensor_shape {
          dim {
            size: 1
          }
        }
        string_val: "deep_model/dnn_logits/dense/bias/Adagrad"
      }
    }
  }
}
node {
  name: "save/RestoreV2_19/shape_and_slices"
  op: "Const"
  device: "/device:CPU:0"
  attr {
    key: "dtype"
    value {
      type: DT_STRING
    }
  }
  attr {
    key: "value"
    value {
      tensor {
        dtype: DT_STRING
        tensor_shape {
          dim {
            size: 1
          }
        }
        string_val: ""
      }
    }
  }
}
node {
  name: "save/RestoreV2_19"
  op: "RestoreV2"
  input: "save/Const"
  input: "save/RestoreV2_19/tensor_names"
  input: "save/RestoreV2_19/shape_and_slices"
  device: "/device:CPU:0"
  attr {
    key: "dtypes"
    value {
      list {
        type: DT_FLOAT
      }
    }
  }
}
node {
  name: "save/Assign_19"
  op: "Assign"
  input: "deep_model/dnn_logits/dense/bias/Adagrad"
  input: "save/RestoreV2_19"
  device: "/device:GPU:0"
  attr {
    key: "T"
    value {
      type: DT_FLOAT
    }
  }
  attr {
    key: "_class"
    value {
      list {
        s: "loc:@deep_model/dnn_logits/dense/bias"
      }
    }
  }
  attr {
    key: "use_locking"
    value {
      b: true
    }
  }
  attr {
    key: "validate_shape"
    value {
      b: true
    }
  }
}
node {
  name: "save/RestoreV2_20/tensor_names"
  op: "Const"
  device: "/device:CPU:0"
  attr {
    key: "dtype"
    value {
      type: DT_STRING
    }
  }
  attr {
    key: "value"
    value {
      tensor {
        dtype: DT_STRING
        tensor_shape {
          dim {
            size: 1
          }
        }
        string_val: "deep_model/dnn_logits/dense/kernel"
      }
    }
  }
}
node {
  name: "save/RestoreV2_20/shape_and_slices"
  op: "Const"
  device: "/device:CPU:0"
  attr {
    key: "dtype"
    value {
      type: DT_STRING
    }
  }
  attr {
    key: "value"
    value {
      tensor {
        dtype: DT_STRING
        tensor_shape {
          dim {
            size: 1
          }
        }
        string_val: ""
      }
    }
  }
}
node {
  name: "save/RestoreV2_20"
  op: "RestoreV2"
  input: "save/Const"
  input: "save/RestoreV2_20/tensor_names"
  input: "save/RestoreV2_20/shape_and_slices"
  device: "/device:CPU:0"
  attr {
    key: "dtypes"
    value {
      list {
        type: DT_FLOAT
      }
    }
  }
}
node {
  name: "save/Assign_20"
  op: "Assign"
  input: "deep_model/dnn_logits/dense/kernel"
  input: "save/RestoreV2_20"
  device: "/device:GPU:0"
  attr {
    key: "T"
    value {
      type: DT_FLOAT
    }
  }
  attr {
    key: "_class"
    value {
      list {
        s: "loc:@deep_model/dnn_logits/dense/kernel"
      }
    }
  }
  attr {
    key: "use_locking"
    value {
      b: true
    }
  }
  attr {
    key: "validate_shape"
    value {
      b: true
    }
  }
}
node {
  name: "save/RestoreV2_21/tensor_names"
  op: "Const"
  device: "/device:CPU:0"
  attr {
    key: "dtype"
    value {
      type: DT_STRING
    }
  }
  attr {
    key: "value"
    value {
      tensor {
        dtype: DT_STRING
        tensor_shape {
          dim {
            size: 1
          }
        }
        string_val: "deep_model/dnn_logits/dense/kernel/Adagrad"
      }
    }
  }
}
node {
  name: "save/RestoreV2_21/shape_and_slices"
  op: "Const"
  device: "/device:CPU:0"
  attr {
    key: "dtype"
    value {
      type: DT_STRING
    }
  }
  attr {
    key: "value"
    value {
      tensor {
        dtype: DT_STRING
        tensor_shape {
          dim {
            size: 1
          }
        }
        string_val: ""
      }
    }
  }
}
node {
  name: "save/RestoreV2_21"
  op: "RestoreV2"
  input: "save/Const"
  input: "save/RestoreV2_21/tensor_names"
  input: "save/RestoreV2_21/shape_and_slices"
  device: "/device:CPU:0"
  attr {
    key: "dtypes"
    value {
      list {
        type: DT_FLOAT
      }
    }
  }
}
node {
  name: "save/Assign_21"
  op: "Assign"
  input: "deep_model/dnn_logits/dense/kernel/Adagrad"
  input: "save/RestoreV2_21"
  device: "/device:GPU:0"
  attr {
    key: "T"
    value {
      type: DT_FLOAT
    }
  }
  attr {
    key: "_class"
    value {
      list {
        s: "loc:@deep_model/dnn_logits/dense/kernel"
      }
    }
  }
  attr {
    key: "use_locking"
    value {
      b: true
    }
  }
  attr {
    key: "validate_shape"
    value {
      b: true
    }
  }
}
node {
  name: "save/RestoreV2_22/tensor_names"
  op: "Const"
  device: "/device:CPU:0"
  attr {
    key: "dtype"
    value {
      type: DT_STRING
    }
  }
  attr {
    key: "value"
    value {
      tensor {
        dtype: DT_STRING
        tensor_shape {
          dim {
            size: 1
          }
        }
        string_val: "wide_logits/wide_model/Variable"
      }
    }
  }
}
node {
  name: "save/RestoreV2_22/shape_and_slices"
  op: "Const"
  device: "/device:CPU:0"
  attr {
    key: "dtype"
    value {
      type: DT_STRING
    }
  }
  attr {
    key: "value"
    value {
      tensor {
        dtype: DT_STRING
        tensor_shape {
          dim {
            size: 1
          }
        }
        string_val: ""
      }
    }
  }
}
node {
  name: "save/RestoreV2_22"
  op: "RestoreV2"
  input: "save/Const"
  input: "save/RestoreV2_22/tensor_names"
  input: "save/RestoreV2_22/shape_and_slices"
  device: "/device:CPU:0"
  attr {
    key: "dtypes"
    value {
      list {
        type: DT_FLOAT
      }
    }
  }
}
node {
  name: "save/Assign_22"
  op: "Assign"
  input: "wide_logits/wide_model/Variable"
  input: "save/RestoreV2_22"
  device: "/device:GPU:1"
  attr {
    key: "T"
    value {
      type: DT_FLOAT
    }
  }
  attr {
    key: "_class"
    value {
      list {
        s: "loc:@wide_logits/wide_model/Variable"
      }
    }
  }
  attr {
    key: "use_locking"
    value {
      b: true
    }
  }
  attr {
    key: "validate_shape"
    value {
      b: true
    }
  }
}
node {
  name: "save/RestoreV2_23/tensor_names"
  op: "Const"
  device: "/device:CPU:0"
  attr {
    key: "dtype"
    value {
      type: DT_STRING
    }
  }
  attr {
    key: "value"
    value {
      tensor {
        dtype: DT_STRING
        tensor_shape {
          dim {
            size: 1
          }
        }
        string_val: "wide_logits/wide_model/Variable/Ftrl"
      }
    }
  }
}
node {
  name: "save/RestoreV2_23/shape_and_slices"
  op: "Const"
  device: "/device:CPU:0"
  attr {
    key: "dtype"
    value {
      type: DT_STRING
    }
  }
  attr {
    key: "value"
    value {
      tensor {
        dtype: DT_STRING
        tensor_shape {
          dim {
            size: 1
          }
        }
        string_val: ""
      }
    }
  }
}
node {
  name: "save/RestoreV2_23"
  op: "RestoreV2"
  input: "save/Const"
  input: "save/RestoreV2_23/tensor_names"
  input: "save/RestoreV2_23/shape_and_slices"
  device: "/device:CPU:0"
  attr {
    key: "dtypes"
    value {
      list {
        type: DT_FLOAT
      }
    }
  }
}
node {
  name: "save/Assign_23"
  op: "Assign"
  input: "wide_logits/wide_model/Variable/Ftrl"
  input: "save/RestoreV2_23"
  device: "/device:GPU:1"
  attr {
    key: "T"
    value {
      type: DT_FLOAT
    }
  }
  attr {
    key: "_class"
    value {
      list {
        s: "loc:@wide_logits/wide_model/Variable"
      }
    }
  }
  attr {
    key: "use_locking"
    value {
      b: true
    }
  }
  attr {
    key: "validate_shape"
    value {
      b: true
    }
  }
}
node {
  name: "save/RestoreV2_24/tensor_names"
  op: "Const"
  device: "/device:CPU:0"
  attr {
    key: "dtype"
    value {
      type: DT_STRING
    }
  }
  attr {
    key: "value"
    value {
      tensor {
        dtype: DT_STRING
        tensor_shape {
          dim {
            size: 1
          }
        }
        string_val: "wide_logits/wide_model/Variable/Ftrl_1"
      }
    }
  }
}
node {
  name: "save/RestoreV2_24/shape_and_slices"
  op: "Const"
  device: "/device:CPU:0"
  attr {
    key: "dtype"
    value {
      type: DT_STRING
    }
  }
  attr {
    key: "value"
    value {
      tensor {
        dtype: DT_STRING
        tensor_shape {
          dim {
            size: 1
          }
        }
        string_val: ""
      }
    }
  }
}
node {
  name: "save/RestoreV2_24"
  op: "RestoreV2"
  input: "save/Const"
  input: "save/RestoreV2_24/tensor_names"
  input: "save/RestoreV2_24/shape_and_slices"
  device: "/device:CPU:0"
  attr {
    key: "dtypes"
    value {
      list {
        type: DT_FLOAT
      }
    }
  }
}
node {
  name: "save/Assign_24"
  op: "Assign"
  input: "wide_logits/wide_model/Variable/Ftrl_1"
  input: "save/RestoreV2_24"
  device: "/device:GPU:1"
  attr {
    key: "T"
    value {
      type: DT_FLOAT
    }
  }
  attr {
    key: "_class"
    value {
      list {
        s: "loc:@wide_logits/wide_model/Variable"
      }
    }
  }
  attr {
    key: "use_locking"
    value {
      b: true
    }
  }
  attr {
    key: "validate_shape"
    value {
      b: true
    }
  }
}
node {
  name: "save/RestoreV2_25/tensor_names"
  op: "Const"
  device: "/device:CPU:0"
  attr {
    key: "dtype"
    value {
      type: DT_STRING
    }
  }
  attr {
    key: "value"
    value {
      tensor {
        dtype: DT_STRING
        tensor_shape {
          dim {
            size: 1
          }
        }
        string_val: "wide_logits/wide_model/Variable_1"
      }
    }
  }
}
node {
  name: "save/RestoreV2_25/shape_and_slices"
  op: "Const"
  device: "/device:CPU:0"
  attr {
    key: "dtype"
    value {
      type: DT_STRING
    }
  }
  attr {
    key: "value"
    value {
      tensor {
        dtype: DT_STRING
        tensor_shape {
          dim {
            size: 1
          }
        }
        string_val: ""
      }
    }
  }
}
node {
  name: "save/RestoreV2_25"
  op: "RestoreV2"
  input: "save/Const"
  input: "save/RestoreV2_25/tensor_names"
  input: "save/RestoreV2_25/shape_and_slices"
  device: "/device:CPU:0"
  attr {
    key: "dtypes"
    value {
      list {
        type: DT_FLOAT
      }
    }
  }
}
node {
  name: "save/Assign_25"
  op: "Assign"
  input: "wide_logits/wide_model/Variable_1"
  input: "save/RestoreV2_25"
  device: "/device:GPU:1"
  attr {
    key: "T"
    value {
      type: DT_FLOAT
    }
  }
  attr {
    key: "_class"
    value {
      list {
        s: "loc:@wide_logits/wide_model/Variable_1"
      }
    }
  }
  attr {
    key: "use_locking"
    value {
      b: true
    }
  }
  attr {
    key: "validate_shape"
    value {
      b: true
    }
  }
}
node {
  name: "save/RestoreV2_26/tensor_names"
  op: "Const"
  device: "/device:CPU:0"
  attr {
    key: "dtype"
    value {
      type: DT_STRING
    }
  }
  attr {
    key: "value"
    value {
      tensor {
        dtype: DT_STRING
        tensor_shape {
          dim {
            size: 1
          }
        }
        string_val: "wide_logits/wide_model/Variable_1/Ftrl"
      }
    }
  }
}
node {
  name: "save/RestoreV2_26/shape_and_slices"
  op: "Const"
  device: "/device:CPU:0"
  attr {
    key: "dtype"
    value {
      type: DT_STRING
    }
  }
  attr {
    key: "value"
    value {
      tensor {
        dtype: DT_STRING
        tensor_shape {
          dim {
            size: 1
          }
        }
        string_val: ""
      }
    }
  }
}
node {
  name: "save/RestoreV2_26"
  op: "RestoreV2"
  input: "save/Const"
  input: "save/RestoreV2_26/tensor_names"
  input: "save/RestoreV2_26/shape_and_slices"
  device: "/device:CPU:0"
  attr {
    key: "dtypes"
    value {
      list {
        type: DT_FLOAT
      }
    }
  }
}
node {
  name: "save/Assign_26"
  op: "Assign"
  input: "wide_logits/wide_model/Variable_1/Ftrl"
  input: "save/RestoreV2_26"
  device: "/device:GPU:1"
  attr {
    key: "T"
    value {
      type: DT_FLOAT
    }
  }
  attr {
    key: "_class"
    value {
      list {
        s: "loc:@wide_logits/wide_model/Variable_1"
      }
    }
  }
  attr {
    key: "use_locking"
    value {
      b: true
    }
  }
  attr {
    key: "validate_shape"
    value {
      b: true
    }
  }
}
node {
  name: "save/RestoreV2_27/tensor_names"
  op: "Const"
  device: "/device:CPU:0"
  attr {
    key: "dtype"
    value {
      type: DT_STRING
    }
  }
  attr {
    key: "value"
    value {
      tensor {
        dtype: DT_STRING
        tensor_shape {
          dim {
            size: 1
          }
        }
        string_val: "wide_logits/wide_model/Variable_1/Ftrl_1"
      }
    }
  }
}
node {
  name: "save/RestoreV2_27/shape_and_slices"
  op: "Const"
  device: "/device:CPU:0"
  attr {
    key: "dtype"
    value {
      type: DT_STRING
    }
  }
  attr {
    key: "value"
    value {
      tensor {
        dtype: DT_STRING
        tensor_shape {
          dim {
            size: 1
          }
        }
        string_val: ""
      }
    }
  }
}
node {
  name: "save/RestoreV2_27"
  op: "RestoreV2"
  input: "save/Const"
  input: "save/RestoreV2_27/tensor_names"
  input: "save/RestoreV2_27/shape_and_slices"
  device: "/device:CPU:0"
  attr {
    key: "dtypes"
    value {
      list {
        type: DT_FLOAT
      }
    }
  }
}
node {
  name: "save/Assign_27"
  op: "Assign"
  input: "wide_logits/wide_model/Variable_1/Ftrl_1"
  input: "save/RestoreV2_27"
  device: "/device:GPU:1"
  attr {
    key: "T"
    value {
      type: DT_FLOAT
    }
  }
  attr {
    key: "_class"
    value {
      list {
        s: "loc:@wide_logits/wide_model/Variable_1"
      }
    }
  }
  attr {
    key: "use_locking"
    value {
      b: true
    }
  }
  attr {
    key: "validate_shape"
    value {
      b: true
    }
  }
}
node {
  name: "save/restore_all/NoOp"
  op: "NoOp"
  input: "^save/Assign"
  input: "^save/Assign_1"
  input: "^save/Assign_2"
  input: "^save/Assign_3"
  input: "^save/Assign_4"
  input: "^save/Assign_5"
  input: "^save/Assign_6"
  input: "^save/Assign_7"
  input: "^save/Assign_8"
  input: "^save/Assign_9"
  input: "^save/Assign_10"
  input: "^save/Assign_11"
  input: "^save/Assign_12"
  input: "^save/Assign_13"
  input: "^save/Assign_14"
  input: "^save/Assign_15"
  input: "^save/Assign_16"
  input: "^save/Assign_17"
  input: "^save/Assign_18"
  input: "^save/Assign_19"
  input: "^save/Assign_20"
  input: "^save/Assign_21"
  device: "/device:GPU:0"
}
node {
  name: "save/restore_all/NoOp_1"
  op: "NoOp"
  input: "^save/Assign_22"
  input: "^save/Assign_23"
  input: "^save/Assign_24"
  input: "^save/Assign_25"
  input: "^save/Assign_26"
  input: "^save/Assign_27"
  device: "/device:GPU:1"
}
node {
  name: "save/restore_all"
  op: "NoOp"
  input: "^save/restore_all/NoOp"
  input: "^save/restore_all/NoOp_1"
}
node {
  name: "init/NoOp"
  op: "NoOp"
  input: "^deep_logits/multiEmbedding/embedding/embeddingemb/Assign"
  input: "^deep_logits/multiEmbedding/embedding_1/embeddingemb/Assign"
  input: "^deep_logits/multiEmbedding/embedding_2/embeddingemb/Assign"
  input: "^deep_model/dnn_hidden_1/dense/kernel/Assign"
  input: "^deep_model/dnn_hidden_1/dense/bias/Assign"
  input: "^deep_model/dnn_hidden_2/dense/kernel/Assign"
  input: "^deep_model/dnn_hidden_2/dense/bias/Assign"
  input: "^deep_model/dnn_hidden_3/dense/kernel/Assign"
  input: "^deep_model/dnn_hidden_3/dense/bias/Assign"
  input: "^deep_model/dnn_logits/dense/kernel/Assign"
  input: "^deep_model/dnn_logits/dense/bias/Assign"
  input: "^deep_logits/multiEmbedding/embedding/embeddingemb/Adagrad/Assign"
  input: "^deep_logits/multiEmbedding/embedding_1/embeddingemb/Adagrad/Assign"
  input: "^deep_logits/multiEmbedding/embedding_2/embeddingemb/Adagrad/Assign"
  input: "^deep_model/dnn_hidden_1/dense/kernel/Adagrad/Assign"
  input: "^deep_model/dnn_hidden_1/dense/bias/Adagrad/Assign"
  input: "^deep_model/dnn_hidden_2/dense/kernel/Adagrad/Assign"
  input: "^deep_model/dnn_hidden_2/dense/bias/Adagrad/Assign"
  input: "^deep_model/dnn_hidden_3/dense/kernel/Adagrad/Assign"
  input: "^deep_model/dnn_hidden_3/dense/bias/Adagrad/Assign"
  input: "^deep_model/dnn_logits/dense/kernel/Adagrad/Assign"
  input: "^deep_model/dnn_logits/dense/bias/Adagrad/Assign"
  device: "/device:GPU:0"
}
node {
  name: "init/NoOp_1"
  op: "NoOp"
  input: "^wide_logits/wide_model/Variable/Assign"
  input: "^wide_logits/wide_model/Variable_1/Assign"
  input: "^wide_logits/wide_model/Variable/Ftrl/Assign"
  input: "^wide_logits/wide_model/Variable/Ftrl_1/Assign"
  input: "^wide_logits/wide_model/Variable_1/Ftrl/Assign"
  input: "^wide_logits/wide_model/Variable_1/Ftrl_1/Assign"
  device: "/device:GPU:1"
}
node {
  name: "init"
  op: "NoOp"
  input: "^init/NoOp"
  input: "^init/NoOp_1"
}
versions {
  producer: 24
}
